General Embeddings/SDXL-Pony/Pony-ScoresNeg.safetensors (safetensors, 90264 bytes, 2 tensors)

clip_g f4 [11, 1280]
-0.023666382 0.0064697266 0.007183075 -0.0032310486 0.019058228 -0.013374329 0.02468872 0.0013141632
-0.015960693 -0.009941101 -0.008369446 0.0073776245 0.02104187 -0.014007568 -0.0021762848 0.018203735
-0.017791748 -0.009490967 -0.0104599 0.008644104 -0.011810303 -0.01576233 0.0025119781 0.02709961
0.00818634 -0.013496399 0.007843018 -0.021865845 0.0021858215 0.015335083 0.027313232 -0.03237915
-0.012634277 0.008110046 -0.0034313202 -0.019622803 -0.017501831 -0.011314392 0.0035533905 -0.01146698
-0.019348145 -0.012718201 -0.0016012192 0.0044059753 0.012756348 -0.0024318695 -0.014968872 -0.00071668625
-0.011299133 -0.005756378 -0.027236938 -0.039886475 0.007118225 0.011367798 -0.01663208 0.01020813
-0.0079956055 0.011940002 -0.0074310303 0.023025513 0.009056091 0.006465912 -0.028762817 0.0026779175
-0.011955261 0.017791748 -0.01084137 0.008476257 0.007019043 0.01966858 0.02571106 0.028259277
-0.0015277863 0.009170532 -0.025527954 -0.004901886 0.02684021 -0.030059814 0.021591187 0.009239197
-0.031402588 0.01020813 0.020095825 0.001739502 -0.0048942566 0.009506226 -0.017471313 0.0040130615
0.024642944 0.014022827 0.01977539 -0.037628174 0.019882202 -0.034454346 -0.012382507 -0.014785767
-0.005844116 -0.003932953 0.016189575 0.0074806213 -0.019485474 0.010475159 0.00048708916 -0.010047913
-0.040496826 0.030838013 -0.021484375 -0.020187378 0.012687683 -0.024276733 0.0072631836 -0.024276733
-0.009811401 -0.0014162064 0.014778137 0.004180908 0.011474609 -0.01411438 -0.007621765 0.023895264
0.009986877 -2.6762486e-05 0.00819397 -0.0069122314 0.028045654 0.022155762 -0.00042033195 -0.0013771057
-0.0017662048 -0.006263733 -0.016830444 -0.027160645 0.010787964 0.032806396 -0.011253357 -0.0121536255
-0.016433716 -0.024795532 -0.014022827 -0.0074501038 0.010734558 -0.015136719 -0.033111572 -0.0012731552
0.003829956 0.027160645 -0.025512695 -0.020980835 0.022445679 -0.0065612793 -0.043762207 0.016296387
-0.018585205 -0.010314941 0.008842468 -0.021530151 6.747246e-05 -0.02772522 -0.013366699 -0.013160706
0.026321411 0.012893677 -0.011306763 0.020507812 -0.0077934265 -0.0046081543 -0.015670776 0.004497528
-0.0335083 -0.011894226 0.02885437 0.020858765 -0.0079574585 0.016296387 0.0045318604 -0.028289795
-0.020019531 -0.0018091202 -0.0068626404 -0.018600464 -0.019683838 0.022598267 -0.022201538 0.003742218
-0.019927979 0.022918701 -0.036102295 0.019119263 0.00012218952 0.0045661926 -0.024139404 0.010925293
0.007774353 0.020370483 0.0014019012 -0.004016876 0.007865906 0.004096985 0.0051651 -0.0135269165
0.020217896 0.007598877 0.012641907 0.0107421875 -0.0042152405 0.0050811768 -0.017578125 0.0029697418
-0.019470215 -0.026275635 -0.01033783 -0.00096321106 0.02935791 -0.007965088 0.022018433 -0.016830444
0.0043792725 -0.0030403137 0.006778717 0.006816864 -0.02961731 -0.0001386404 -0.0075798035 -0.01197052
-0.022476196 0.0009522438 0.0158844 0.0011968613 -0.0061187744 0.0057029724 -0.008598328 -0.014160156
-0.01701355 -0.006412506 -0.008872986 -0.0030822754 -0.012138367 0.0051994324 -0.007873535 -0.021224976
-0.0027580261 0.031463623 0.018920898 0.017440796 0.007484436 0.032287598 0.017364502 -0.005504608
0.01940918 0.020111084 0.0012588501 -0.00447464 0.023010254 -0.00970459 0.0026626587 -0.021850586
00000000: 00e0 c1bc 0000 d43b 0060 eb3b 00c0 53bb
00000010: 0020 9c3c 0020 5bbc 0040 ca3c 0040 ac3a
00000020: 00c0 82bc 00e0 22bc 0020 09bc 00c0 f13b
00000030: 0060 ac3c 0080 65bc 00a0 0ebb 0020 953c
00000040: 00c0 91bc 0080 1bbc 0060 2bbc 00a0 0d3c
00000050: 0080 41bc 0020 81bc 00a0 243b 0000 de3c
00000060: 0020 063c 0020 5dbc 0080 003c 0020 b3bc
00000070: 0040 0f3b 0040 7b3c 00c0 df3c 00a0 04bd
00000080: 0000 4fbc 00e0 043c 00e0 60bb 00c0 a0bc
00000090: 0060 8fbc 0060 39bc 00e0 683b 00e0 3bbc
000000a0: 0080 9ebc 0060 50bc 00e0 d1ba 0060 903b
000000b0: 0000 513c 0060 1fbb 0040 75bc 00e0 3bba
000000c0: 0020 39bc 00a0 bcbb 0020 dfbc 0060 23bd
000000d0: 0040 e93b 0040 3a3c 0040 88bc 0040 273c
000000e0: 0000 03bc 00a0 433c 0080 f3bb 00a0 bc3c
000000f0: 0060 143c 00e0 d33b 00a0 ebbc 0080 2f3b
00000100: 00e0 43bc 00c0 913c 00a0 31bc 00e0 0a3c
00000110: 0000 e63b 0020 a13c 00a0 d23c 0080 e73c
00000120: 0040 c8ba 0040 163c 0020 d1bc 00a0 a0bb
00000130: 00e0 db3c 0040 f6bc 00e0 b03c 0060 173c
00000140: 00a0 00bd 0040 273c 00a0 a43c 0000 e43a
00000150: 0060 a0bb 00c0 1b3c 0020 8fbc 0080 833b
00000160: 00e0 c93c 00c0 653c 0000 a23c 0020 1abd
00000170: 00e0 a23c 0020 0dbd 00e0 4abc 0040 72bc
00000180: 0080 bfbb 00e0 80bb 00a0 843c 0020 f53b
00000190: 00a0 9fbc 00a0 2b3c 0060 ff39 00a0 24bc
000001a0: 00e0 25bd 00a0 fc3c 0000 b0bc 0060 a5bc
000001b0: 00e0 4f3c 00e0 c6bc 0000 ee3b 00e0 c6bc
000001c0: 00c0 20bc 00a0 b9ba 0020 723c 0000 893b
000001d0: 0000 3c3c 0040 67bc 00c0 f9bb 00c0 c33c
000001e0: 00a0 233c 0080 e0b7 0040 063c 0080 e2bb
000001f0: 00c0 e53c 0080 b53c 0060 dcb9 0080 b4ba
00000200: 0080 e7ba 0040 cdbb 00e0 89bc 0080 debc
00000210: 00c0 303c 0060 063d 0060 38bc 0020 47bc
00000220: 00a0 86bc 0020 cbbc 00c0 65bc 0020 f4bb
00000230: 00e0 2f3c 0000 78bc 00a0 07bd 00e0 a6ba
00000240: 0000 7b3b 0080 de3c 0000 d1bc 00e0 abbc
00000250: 00e0 b73c 0000 d7bb 0040 33bd 0080 853c
00000260: 0040 98bc 0000 29bc 00e0 103c 0060 b0bc
00000270: 0080 8d38 0020 e3bc 0000 5bbc 00a0 57bc
00000280: 00a0 d73c 0040 533c 0040 39bc 0000 a83c
00000290: 0060 ffbb 0000 97bb 0060 80bc 0060 933b
000002a0: 0040 09bd 00e0 42bc 0060 ec3c 00e0 aa3c
000002b0: 0060 02bc 0080 853c 0080 943b 00c0 e7bc
000002c0: 0000 a4bc 0020 edba 00e0 e0bb 0060 98bc
000002d0: 0040 a1bc 0020 b93c 00e0 b5bc 0040 753b
000002e0: 0040 a3bc 00c0 bb3c 00e0 13bd 00a0 9c3c
000002f0: 0020 0039 00a0 953b 00c0 c5bc 0000 333c
00000300: 00c0 fe3b 00e0 a63c 00c0 b73a 00a0 83bb
00000310: 00e0 003c 0040 863b 0040 a93b 00a0 5dbc
00000320: 00a0 a53c 0000 f93b 0020 4f3c 0000 303c
00000330: 0020 8abb 0080 a63b 0000 90bc 00a0 423b
00000340: 0080 9fbc 0040 d7bc 0060 29bc 0080 7cba
00000350: 0080 f03c 0080 02bc 0060 b43c 00e0 89bc
00000360: 0080 8f3b 0040 47bb 0020 de3b 0060 df3b
00000370: 00a0 f2bc 0060 11b9 0060 f8bb 0020 44bc
00000380: 0020 b8bc 00a0 793a 0020 823c 00e0 9c3a
00000390: 0080 c8bb 00e0 ba3b 00e0 0cbc 0000 68bc
000003a0: 0060 8bbc 0020 d2bb 0060 11bc 0000 4abb
000003b0: 00e0 46bc 0060 aa3b 0000 01bc 00e0 adbc
000003c0: 00c0 34bb 00e0 003d 0000 9b3c 00e0 8e3c
000003d0: 0040 f53b 0040 043d 0040 8e3c 0060 b4bb
000003e0: 0000 9f3c 00c0 a43c 0000 a53a 00a0 92bb
000003f0: 0080 bc3c 0000 1fbc 0080 2e3b 0000 b3bc

clip_l f4 [11, 768]
0.0037002563 0.0016794205 -0.008483887 0.026519775 -0.0040359497 -0.010398865 -0.005420685 0.010414124
0.0029945374 0.016052246 -0.006706238 -0.016220093 0.035949707 0.016036987 0.013328552 -0.004776001
0.019165039 -0.011634827 0.027801514 0.038116455 0.018112183 -0.024841309 0.011405945 0.004055023
-0.012489319 0.028640747 -0.025375366 -0.0287323 -0.00881958 -0.012718201 0.009025574 -0.0129852295
-0.0015668869 -0.009017944 -0.0095825195 -0.04800415 0.021224976 -0.02078247 0.028518677 -0.011703491
-0.011581421 -0.0055389404 0.01940918 -0.022491455 -0.0033512115 0.010131836 0.0062561035 -0.0020332336
-0.012878418 -0.0029888153 0.008018494 -0.0006299019 0.021896362 -0.01713562 -0.008842468 -0.02255249
-0.0061416626 -0.007396698 0.016799927 -0.02368164 -0.029571533 -0.0008363724 -0.0035953522 -0.0009765625
0.011619568 -0.017700195 0.016311646 0.027359009 0.0060691833 -0.015083313 -0.021408081 -0.006259918
-0.012504578 -0.0019435883 -0.015625 0.012062073 -0.018356323 -0.045013428 -0.0126953125 -0.011993408
-0.019363403 -0.00881958 0.04055786 -0.0057868958 0.011474609 0.003030777 0.02104187 0.0051002502
-0.008712769 -0.036254883 -0.0051651 0.0002541542 0.0038337708 -0.010017395 0.016189575 -0.000998497
0.0079574585 0.015296936 -0.022018433 0.00793457 -0.011810303 0.059539795 -0.02355957 0.008964539
-0.004234314 -0.02796936 0.009010315 -0.014862061 -0.012611389 0.008140564 0.027496338 0.008857727
-0.014907837 -0.01360321 -0.018478394 0.009384155 0.014213562 0.008636475 -0.0082092285 0.007701874
0.024902344 0.013748169 0.0037174225 -0.0036296844 -0.007133484 -0.01713562 -0.0115356445 0.0056762695
-0.011039734 -0.0049743652 0.013046265 0.018096924 0.019744873 0.010017395 -0.00920105 -2.9087067e-05
0.00018501282 -0.0048675537 0.03427124 0.014556885 -0.0017995834 -0.021835327 0.017593384 -0.011779785
-0.007255554 -0.024093628 0.02281189 -0.011421204 -0.009864807 -0.023254395 0.0077323914 -0.0034255981
0.014915466 0.023742676 0.020965576 -0.021224976 -0.024902344 0.0053367615 -0.004196167 -0.008033752
0.011199951 -0.012664795 0.00059843063 0.031173706 -0.010848999 0.021896362 -0.03189087 0.005897522
0.022064209 0.0058517456 0.0013542175 0.007209778 0.0014257431 -0.0006327629 -0.014770508 -0.0030403137
0.01398468 0.008773804 -0.00674057 0.01058197 -0.009361267 -0.01361084 0.013946533 0.023117065
-0.001909256 -0.014129639 -0.0031108856 -0.0006580353 0.027770996 0.013458252 -0.022018433 0.0030918121
-0.008995056 0.0055999756 -0.01953125 0.021072388 -0.016647339 0.009414673 0.004699707 -0.0030555725
0.010292053 -0.0051956177 0.027801514 0.00097322464 0.0064430237 -0.027557373 0.013092041 -0.0068206787
0.015914917 0.012275696 -0.0048103333 -0.0121154785 0.0012226105 -0.007572174 0.0126953125 0.022262573
-0.00048422813 -0.016036987 0.015472412 0.008590698 -0.011001587 -0.023422241 -0.01171875 0.009178162
-0.012863159 -0.009681702 0.010772705 -0.004638672 0.0013141632 0.02418518 -0.012252808 -0.011062622
-0.0047950745 -0.0066070557 -0.018096924 0.0016536713 -0.0053863525 0.008140564 0.03930664 0.010818481
0.02130127 -0.0042495728 0.008590698 0.008392334 -0.008171082 0.003993988 0.0076522827 0.04159546
0.013366699 -0.020065308 -0.0038032532 -0.021728516 0.022415161 0.00069379807 -0.0034332275 -0.0067329407
00000000: 0080 723b 0020 dc3a 0000 0bbc 0040 d93c
00000010: 0040 84bb 0060 2abc 00a0 b1bb 00a0 2a3c
00000020: 0040 443b 0080 833c 00c0 dbbb 00e0 84bc
00000030: 0040 133d 0060 833c 0060 5a3c 0080 9cbb
00000040: 0000 9d3c 00a0 3ebc 00c0 e33c 0020 1c3d
00000050: 0060 943c 0080 cbbc 00e0 3a3c 00e0 843b
00000060: 00a0 4cbc 00a0 ea3c 00e0 cfbc 0060 ebbc
00000070: 0080 10bc 0060 50bc 00e0 133c 00c0 54bc
00000080: 0060 cdba 00c0 13bc 0000 1dbc 00a0 44bd
00000090: 00e0 ad3c 0040 aabc 00a0 e93c 00c0 3fbc
000000a0: 00c0 3dbc 0080 b5bb 0000 9f3c 0040 b8bc
000000b0: 00a0 5bbb 0000 263c 0000 cd3b 0040 05bb
000000c0: 0000 53bc 00e0 43bb 0060 033c 0020 25ba
000000d0: 0060 b33c 0060 8cbc 00e0 10bc 00c0 b8bc
000000e0: 0040 c9bb 0060 f2bb 00a0 893c 0000 c2bc
000000f0: 0040 f2bc 0040 5bba 00a0 6bbb 0000 80ba
00000100: 0060 3e3c 0000 91bc 00a0 853c 0020 e03c
00000110: 00e0 c63b 0020 77bc 0060 afbc 0020 cdbb
00000120: 00e0 4cbc 00c0 feba 0000 80bc 00a0 453c
00000130: 0060 96bc 0060 38bd 0000 50bc 0080 44bc
00000140: 00a0 9ebc 0080 10bc 0020 263d 00a0 bdbb
00000150: 0000 3c3c 00a0 463b 0060 ac3c 0020 a73b
00000160: 00c0 0ebc 0080 14bd 0040 a9bb 0040 8539
00000170: 0040 7b3b 0020 24bc 00a0 843c 00e0 82ba
00000180: 0060 023c 00a0 7a3c 0060 b4bc 0000 023c
00000190: 0080 41bc 00e0 733d 0000 c1bc 00e0 123c
000001a0: 00c0 8abb 0020 e5bc 00a0 133c 0080 73bc
000001b0: 00a0 4ebc 0060 053c 0040 e13c 0020 113c
000001c0: 0040 74bc 00e0 5ebc 0060 97bc 00c0 193c
000001d0: 00e0 683c 0080 0d3c 0080 06bc 0060 fc3b
000001e0: 0000 cc3c 0040 613c 00a0 733b 00e0 6dbb
000001f0: 00c0 e9bb 0060 8cbc 0000 3dbc 0000 ba3b
00000200: 00e0 34bc 0000 a3bb 00c0 553c 0040 943c
00000210: 00c0 a13c 0020 243c 00c0 16bc 0000 f4b7
00000220: 0000 4239 0080 9fbb 0060 0c3d 0080 6e3c
00000230: 00e0 ebba 00e0 b2bc 0020 903c 0000 41bc
00000240: 00c0 edbb 0060 c5bc 00e0 ba3c 0020 3bbc
00000250: 00a0 21bc 0080 bebc 0060 fd3b 0080 60bb
00000260: 0060 743c 0080 c23c 00c0 ab3c 00e0 adbc
00000270: 0000 ccbc 00e0 ae3b 0080 89bb 00a0 03bc
00000280: 0080 373c 0080 4fbc 00e0 1c3a 0060 ff3c
00000290: 00c0 31bc 0060 b33c 00a0 02bd 0040 c13b
000002a0: 00c0 b43c 00c0 bf3b 0080 b13a 0040 ec3b
000002b0: 00e0 ba3a 00e0 25ba 0000 72bc 0040 47bb
000002c0: 0020 653c 00c0 0f3c 00e0 dcbb 0060 2d3c
000002d0: 0060 19bc 0000 5fbc 0080 643c 0060 bd3c
000002e0: 0040 faba 0080 67bc 00e0 4bbb 0080 2cba
000002f0: 0080 e33c 0080 5c3c 0060 b4bc 00a0 4a3b
00000300: 0060 13bc 0080 b73b 0000 a0bc 00a0 ac3c
00000310: 0060 88bc 0040 1a3c 0000 9a3b 0040 48bb
00000320: 00a0 283c 0040 aabb 00c0 e33c 0020 7f3a
00000330: 0020 d33b 00c0 e1bc 0080 563c 0080 dfbb
00000340: 0060 823c 0020 493c 00a0 9dbb 0080 46bc
00000350: 0040 a03a 0020 f8bb 0000 503c 0060 b63c
00000360: 00e0 fdb9 0060 83bc 0080 7d3c 00c0 0c3c
00000370: 0040 34bc 00e0 bfbc 0000 40bc 0060 163c
00000380: 00c0 52bc 00a0 1ebc 0080 303c 0000 98bb
00000390: 0040 ac3a 0020 c63c 00c0 48bc 0040 35bc
000003a0: 0020 9dbb 0080 d8bb 0040 94bc 00c0 d83a
000003b0: 0080 b0bb 0060 053c 0000 213d 0040 313c
000003c0: 0080 ae3c 0040 8bbb 00c0 0c3c 0080 093c
000003d0: 00e0 05bc 00e0 823b 00c0 fa3b 0060 2a3d
000003e0: 0000 5b3c 0060 a4bc 0040 79bb 0000 b2bc
000003f0: 00a0 b73c 00e0 353a 0000 61bb 00a0 dcbb
