General Embeddings/SDXL-Pony/Pony-RealisticStyleNeg.safetensors (safetensors, 172184 bytes, 2 tensors)

clip_g f4 [21, 1280]
00000000: 0000 cbbb 0020 ecbc 00e0 47bd 0080 2a3c
00000010: 00c0 4d3d 00e0 a33b 0020 44bc 00e0 2a3d
00000020: 0080 28bc 0000 bebc 00a0 073c 0040 463d
00000030: 0080 803c 00e0 8b3b 0080 17bb 0020 d93a
00000040: 0000 c7bc 00a0 cc3b 0080 bf3c 00e0 b73b
00000050: 0020 b73c 0060 8fbc 0080 2bbd 00e0 243c
00000060: 0040 a1bb 0020 29bd 0040 90bc 0020 fabc
00000070: 00a0 acbb 0040 9ebc 0040 973c 00a0 99bb
00000080: 0020 82bb 0060 03bd 0080 15bb 0000 0bbb
00000090: 0080 223c 00c0 d7bc 0000 e53c 0080 173b
000000a0: 0080 893b 0040 2ebb 0020 c93c 0060 74bb
000000b0: 0040 07bb 0040 5fbc 0080 9abc 0020 d2bc
000000c0: 0040 93bb 00a0 b2bc 00c0 cf3c 0060 b1bb
000000d0: 0080 dcbb 00a0 2e3c 00e0 54bc 0080 c33c
000000e0: 00c0 f7ba 00c0 be39 0060 20bb 0020 cabc
000000f0: 0020 36bc 0060 1c3c 0080 babc 0060 1e3c
00000100: 0080 b8bc 0080 5abc 0060 eebc 0000 3d3b
00000110: 00e0 7e3c 00a0 e13b 00a0 8fbc 0040 eebc
00000120: 0020 c9ba 0020 c9bb 0000 5e3c 0040 c4bc
00000130: 0000 983c 0080 82bc 0060 99bb 0060 fc3a
00000140: 00c0 303d 0020 bfbc 00c0 fbb9 00a0 25bb
00000150: 0040 56bd 0040 0cbd 0080 cdbc 0000 ce3b
00000160: 0000 0c3d 00e0 66bb 0000 033d 0040 11bc
00000170: 0060 a2b8 0060 6dbb 00a0 93bc 0000 11bd
00000180: 0040 a53c 00c0 92bc 0060 06bd 00e0 513d
00000190: 00e0 653b 00c0 f83a 0080 c83c 0080 9abc
000001a0: 0000 0abd 00a0 e73a 0060 17bc 00a0 fb3a
000001b0: 0000 3dbc 0080 58bd 0080 e53a 0060 13bc
000001c0: 0020 81bc 00e0 c8bc 0040 a3bc 0020 393b
000001d0: 0000 153c 00e0 f6bc 0000 943b 0060 d23c
000001e0: 00c0 aebc 00c0 8b3c 00c0 413c 0080 263c
000001f0: 00c0 ccbb 0060 8c3c 00c0 11bd 0080 6bbb
00000200: 0000 9abc 00a0 38bc 0080 0d3c 0040 30bd
00000210: 00c0 2cbb 00c0 373b 0020 a7bc 00e0 1abb
00000220: 0020 6e3c 00e0 80bc 00a0 f13b 0040 3cbb
00000230: 0000 b93c 00c0 9abc 0000 6dbc 00a0 063a
00000240: 0080 7c3c 0080 ec3c 00c0 66bc 00a0 cdbb
00000250: 00c0 caba 0080 55bc 0080 0b3c 00e0 50bc
00000260: 0060 183c 0060 02bd 0080 95bc 0060 bbbc
00000270: 00a0 9d3c 00a0 20bd 0080 443d 0020 e23c
00000280: 0040 29bd 0080 643c 0000 c83c 00c0 40bc
00000290: 00e0 78bb 0000 393c 0040 a2bc 0060 a5bb
000002a0: 00e0 f03b 00c0 c5ba 0060 293c 0040 993c
000002b0: 0080 97ba 0060 b63b 0080 7a3c 0020 d4bb
000002c0: 00e0 aebb 0040 1ebc 00c0 373c 0020 d03a
000002d0: 0080 283d 00e0 5fbc 00e0 983b 0080 72bc
000002e0: 00c0 8bba 0060 663a 0000 54bc 00a0 cc3c
000002f0: 0000 13bc 0000 24bd 0020 d13b 0060 113c
00000300: 00e0 3bbc 00a0 14bc 0000 51bc 0040 85ba
00000310: 0040 b5bc 0040 14bc 00e0 563c 0040 743b
00000320: 0040 c1bc 0020 f5bc 00c0 5bbc 0080 9d3c
00000330: 0060 f7bc 00a0 86bb 0000 183b 00c0 5bba
00000340: 0020 4dbb 00c0 763c 0020 2f3c 00a0 bd3b
00000350: 0060 6e3c 0040 063a 00c0 663c 00e0 443c
00000360: 00c0 88bc 00e0 99bc 00c0 a83c 0040 393d
00000370: 0000 98bb 0060 d93b 00e0 c93c 00e0 b4bb
00000380: 0040 0a3d 0020 95bc 0040 1d3c 0040 e3bc
00000390: 0040 0f3d 00c0 77ba 0020 473c 0060 ff3c
000003a0: 00e0 243d 0060 75bc 0060 4a39 00c0 3ebd
000003b0: 0060 33bd 0020 913c 0040 91bc 0020 c23a
000003c0: 0000 06b8 0040 66bc 0060 a7bb 0060 b03c
000003d0: 0000 de3c 0020 e8bb 00a0 3ebc 00e0 c63c
000003e0: 00a0 183c 00e0 c53c 0060 c5bc 00a0 373c
000003f0: 0040 92ba 0040 173c 0040 43bd 00c0 e5ba
-0.0061950684 -0.028823853 -0.048797607 0.010406494 0.050231934 0.005001068 -0.01197052 0.04171753
-0.010284424 -0.02319336 0.008277893 0.04840088 0.015686035 0.0042686462 -0.0023117065 0.0016565323
-0.024291992 0.0062446594 0.023376465 0.0056114197 0.022354126 -0.017501831 -0.041870117 0.010063171
-0.0049209595 -0.041290283 -0.017608643 -0.030532837 -0.005268097 -0.019317627 0.018463135 -0.004688263
-0.0039711 -0.032073975 -0.002281189 -0.0021209717 0.009918213 -0.02633667 0.027954102 0.0023117065
0.004196167 -0.002658844 0.024551392 -0.0037288666 -0.0020637512 -0.013626099 -0.018859863 -0.025650024
-0.0044937134 -0.02180481 0.025360107 -0.0054130554 -0.006729126 0.010658264 -0.012992859 0.023864746
-0.0018901825 0.00036382675 -0.0024471283 -0.024673462 -0.011116028 0.009544373 -0.022766113 0.009666443
-0.022521973 -0.013336182 -0.02909851 0.0028839111 0.015556335 0.0068855286 -0.017532349 -0.029083252
-0.001534462 -0.006137848 0.013549805 -0.023956299 0.018554688 -0.015930176 -0.0046806335 0.0019254684
0.043151855 -0.023330688 -0.00048017502 -0.002527237 -0.05230713 -0.034240723 -0.02508545 0.006286621
0.034179688 -0.003522873 0.031982422 -0.008865356 -7.742643e-05 -0.003622055 -0.01802063 -0.03540039
0.02017212 -0.017913818 -0.032806396 0.051239014 0.0035076141 0.0018978119 0.024475098 -0.018859863
-0.033691406 0.0017671585 -0.009239197 0.0019197464 -0.0115356445 -0.052856445 0.001750946 -0.008995056
-0.01576233 -0.024520874 -0.019927979 0.0028247833 0.009094238 -0.030136108 0.0045166016 0.025680542
-0.021331787 0.017059326 0.0118255615 0.0101623535 -0.006248474 0.01713562 -0.035583496 -0.0035934448
-0.018798828 -0.011268616 0.008636475 -0.043029785 -0.0026359558 0.0028038025 -0.020401001 -0.002363205
0.014533997 -0.015731812 0.00737381 -0.002872467 0.022583008 -0.01889038 -0.014465332 0.0005135536
0.015411377 0.028869629 -0.014083862 -0.006275177 -0.0015468597 -0.013031006 0.008514404 -0.012748718
0.009300232 -0.031829834 -0.018249512 -0.022872925 0.019241333 -0.039215088 0.047973633 0.02760315
-0.0413208 0.013946533 0.024414062 -0.011764526 -0.0037975311 0.011291504 -0.019805908 -0.0050468445
0.0073509216 -0.0015087128 0.01033783 0.018707275 -0.0011558533 0.0055656433 0.015289307 -0.0064735413
-0.0053367615 -0.0096588135 0.01121521 0.0015878677 0.041137695 -0.013664246 0.0046653748 -0.014801025
-0.0010662079 0.0008788109 -0.012939453 0.024978638 -0.008972168 -0.040039062 0.0063819885 0.008872986
-0.01146698 -0.00907135 -0.012756348 -0.0010166168 -0.022125244 -0.009048462 0.013114929 0.0037269592
-0.023590088 -0.029922485 -0.013412476 0.019226074 -0.030197144 -0.004108429 0.002319336 -0.0008382797
-0.003129959 0.015060425 0.010688782 0.0057868958 0.014549255 0.0005121231 0.014083862 0.012016296
-0.016693115 -0.01878357 0.020599365 0.04522705 -0.004638672 0.0066337585 0.024642944 -0.005519867
0.03375244 -0.018203735 0.009597778 -0.027740479 0.034973145 -0.00094509125 0.0121536255 0.031173706
0.040252686 -0.014976501 0.00019299984 -0.046569824 -0.043792725 0.017715454 -0.017730713 0.0014810562
-3.194809e-05 -0.014053345 -0.0051078796 0.021530151 0.02709961 -0.007083893 -0.011634827 0.024276733
0.009315491 0.024154663 -0.024093628 0.011207581 -0.001115799 0.009231567 -0.047668457 -0.0017528534

clip_l f4 [21, 768]
00000000: 0060 aebb 00c0 293c 0000 70b9 00e0 a63c
00000010: 0000 fd3a 0020 4bbb 0020 35bc 0080 4c3c
00000020: 00e0 093d 00c0 8a3c 00c0 883b 0000 8bbc
00000030: 0000 873c 0040 c7bb 0020 0a3d 0020 2dbc
00000040: 0020 13bc 0040 73bb 0000 213c 0040 7a3d
00000050: 00a0 9bbb 0040 a23c 0020 a13c 0080 b7ba
00000060: 0020 a93c 00e0 bdbb 0040 b23b 00e0 c1bc
00000070: 0000 04bb 0020 d1bb 0060 d63b 0020 e3bc
00000080: 00a0 0abc 0060 c83c 0000 9fbc 00a0 5fbd
00000090: 0040 ddbb 0080 46bc 0000 3bbc 00e0 85b9
000000a0: 00a0 e8bb 00a0 fd3a 0020 903c 0080 77bc
000000b0: 00a0 2e3c 0000 87bb 0000 bd3c 0060 de3c
000000c0: 0000 acba 00a0 acbc 0020 a0bc 0000 5e3c
000000d0: 00e0 d53b 0020 3abb 00a0 e9bb 00a0 dbbc
000000e0: 0080 9339 00e0 cabb 0040 933b 0020 963a
000000f0: 00c0 fcba 00a0 aeba 0020 323b 0000 a0bb
00000100: 00e0 babc 0080 eb3b 0080 ffbb 0020 d73b
00000110: 00e0 a53b 00c0 e9bc 0060 8f3c 0060 dfba
00000120: 0020 663c 00a0 553c 0040 823c 00c0 923c
00000130: 00a0 91bc 0060 a5bc 00c0 7e3b 0020 05bc
00000140: 00e0 3fbb 0080 de3c 0060 893c 0080 a93c
00000150: 0080 21bd 0080 e43b 0060 30bc 00c0 bfbb
00000160: 0000 823c 0060 88bc 00e0 aabc 0000 db3c
00000170: 0060 3dbc 0000 bcbb 0020 423c 0060 74bc
00000180: 0080 54bd 00e0 f23b 0020 6d3c 00a0 9dbc
00000190: 00c0 fdba 0040 01bd 0020 403b 0060 8e3c
000001a0: 0060 f1ba 00e0 973b 0060 f6bb 00e0 ddbb
000001b0: 0020 a73c 00a0 c63a 0060 5c3c 0080 debb
000001c0: 0000 8f3c 0080 0d3d 0020 8e3b 0000 b63b
000001d0: 0060 5cbc 00e0 9dbb 00a0 92b8 0000 b1b9
000001e0: 00e0 7cbc 0080 8e3c 00a0 9f3c 0040 093c
000001f0: 0040 01bc 0080 64ba 0060 04bc 00a0 3f3c
00000200: 00a0 cabb 0000 1939 0060 c33c 0020 ae3c
00000210: 0020 7f3c 0040 0ebd 0000 01ba 0020 9dbc
00000220: 0040 a2bc 00c0 fabc 00a0 37bd 0060 da3c
00000230: 0080 b73b 00c0 c7bc 00a0 d23c 0020 8f3c
00000240: 0000 ea3a 0000 013c 0080 943c 00c0 b0bc
00000250: 00c0 943c 00a0 da3c 0080 f7bb 00a0 e83c
00000260: 0000 7ebc 0020 9bb8 0060 a1bb 00c0 56bc
00000270: 00c0 2bbc 0020 733c 0000 72bc 0080 96bc
00000280: 00a0 b13c 0080 0339 0040 923b 0080 82bc
00000290: 0080 2ebb 00c0 a1bb 00c0 60ba 00c0 91bc
000002a0: 0060 733b 0060 51bc 00c0 1a3b 0080 5fbc
000002b0: 0060 8fbc 00a0 dcbb 00a0 e6bc 00c0 b9bc
000002c0: 00c0 98bc 00c0 17bd 0060 abbc 0020 873c
000002d0: 00c0 2e3c 0040 63bb 0000 bfb8 00e0 10bc
000002e0: 0040 a13b 0080 b53c 00a0 903c 0040 f3ba
000002f0: 00e0 4f3b 0000 a6bb 0020 99bc 0000 18bc
00000300: 0080 babb 00a0 15bc 0080 a23c 0000 113d
00000310: 00c0 363c 0080 20bc 0060 763c 00a0 1a3c
00000320: 0060 503c 00c0 d5bb 00c0 0fbc 0000 783c
00000330: 00e0 f73b 0060 4d3c 0000 bf3b 0060 643c
00000340: 0060 623c 00e0 f53c 0040 c03b 00a0 083c
00000350: 0020 0cbc 0060 3abb 0060 20bd 00e0 78bb
00000360: 0000 4e3c 0000 c33c 00e0 3abb 0060 85bb
00000370: 00e0 ad3c 0020 54ba 0080 05bd 0060 1dba
00000380: 00a0 acbc 00c0 a1bc 0060 c8ba 00a0 74bc
00000390: 0000 babb 00c0 e53b 0060 973c 0060 93bb
000003a0: 0080 abba 0020 ec3a 0080 23ba 0060 d9bb
000003b0: 0020 203b 00e0 39bb 0060 adbc 00c0 2a3b
000003c0: 00a0 b9bc 0020 f53a 0080 51bc 0040 3f3c
000003d0: 0020 6b3b 0040 5b3b 0020 0b3a 0060 15bc
000003e0: 0060 9b3c 0080 53bc 00c0 493c 00a0 f6bb
000003f0: 00c0 b2bc 0020 843c 0060 a43c 0000 7f3b
-0.0053215027 0.010360718 -0.00022888184 0.020370483 0.0019302368 -0.0030994415 -0.011054993 0.012481689
0.03366089 0.016937256 0.004173279 -0.016967773 0.016479492 -0.0060806274 0.033721924 -0.010566711
-0.008979797 -0.0037117004 0.00982666 0.06109619 -0.004749298 0.019805908 0.01966858 -0.0013999939
0.020645142 -0.005794525 0.0054397583 -0.023666382 -0.0020141602 -0.0063819885 0.006542206 -0.02772522
-0.008460999 0.024459839 -0.01940918 -0.054595947 -0.006752014 -0.0121154785 -0.011413574 -0.0002553463
-0.0070991516 0.0019350052 0.017593384 -0.015106201 0.010658264 -0.004119873 0.023071289 0.027145386
-0.0013122559 -0.021072388 -0.019546509 0.013549805 0.006526947 -0.002840042 -0.007129669 -0.026809692
0.00028133392 -0.0061912537 0.0044937134 0.0011453629 -0.0019283295 -0.001332283 0.0027179718 -0.0048828125
-0.02281189 0.0071868896 -0.007797241 0.006565094 0.0050621033 -0.028533936 0.017501831 -0.001704216
0.014045715 0.013038635 0.015899658 0.017913818 -0.01777649 -0.020187378 0.0038871765 -0.008125305
-0.0029277802 0.027160645 0.01676941 0.020690918 -0.03942871 0.0069732666 -0.010765076 -0.0058517456
0.01586914 -0.016647339 -0.020858765 0.026733398 -0.011558533 -0.0057373047 0.01184845 -0.014915466
-0.051879883 0.007411957 0.014472961 -0.019241333 -0.0019359589 -0.031555176 0.0029315948 0.01737976
-0.0018415451 0.004634857 -0.0075187683 -0.0067710876 0.020401001 0.0015153885 0.013450623 -0.006790161
0.017456055 0.0345459 0.004337311 0.005554199 -0.013450623 -0.0048179626 -6.991625e-05 -0.0003376007
-0.015434265 0.01739502 0.019485474 0.008377075 -0.007888794 -0.0008716583 -0.008079529 0.011695862
-0.0061836243 0.00014591217 0.023849487 0.021255493 0.015571594 -0.034729004 -0.00049209595 -0.019180298
-0.019805908 -0.03060913 -0.044830322 0.026657104 0.0055999756 -0.024383545 0.02571106 0.017471313
0.0017852783 0.007873535 0.018127441 -0.021575928 0.018157959 0.026687622 -0.0075531006 0.028396606
-0.01550293 -7.3969364e-05 -0.004924774 -0.0131073 -0.010482788 0.014839172 -0.014770508 -0.018371582
0.02168274 0.00012540817 0.004463196 -0.015930176 -0.0026626587 -0.0049362183 -0.0008573532 -0.017791748
0.0037136078 -0.012779236 0.0023612976 -0.013641357 -0.017501831 -0.0067329407 -0.028152466 -0.02267456
-0.01864624 -0.03704834 -0.0209198 0.016494751 0.010665894 -0.0034675598 -9.10759e-05 -0.008842468
0.0049209595 0.022155762 0.017654419 -0.0018558502 0.0031719208 -0.005065918 -0.018692017 -0.009277344
-0.0056915283 -0.009132385 0.019836426 0.03540039 0.011154175 -0.009796143 0.015037537 0.009437561
0.012718201 -0.0065231323 -0.008773804 0.015136719 0.0075645447 0.012535095 0.0058288574 0.013938904
0.0138168335 0.030014038 0.0058670044 0.008338928 -0.008552551 -0.0028438568 -0.039154053 -0.0037975311
0.012573242 0.023803711 -0.0028514862 -0.004070282 0.021224976 -0.00080919266 -0.032592773 -0.000600338
-0.021072388 -0.019744873 -0.0015287399 -0.014930725 -0.0056762695 0.0070114136 0.018478394 -0.004497528
-0.0013084412 0.0018014908 -0.000623703 -0.0066337585 0.0024433136 -0.0028362274 -0.02116394 0.0026054382
-0.022659302 0.0018701553 -0.012786865 0.011672974 0.0035877228 0.0033454895 0.00053071976 -0.009117126
0.018966675 -0.012908936 0.012313843 -0.0075263977 -0.021820068 0.01612854 0.020065308 0.0038909912
