General Embeddings/SDXL-Pony/Pony-SkinDetail.safetensors (safetensors, 147608 bytes, 2 tensors)

clip_g f4 [18, 1280]
0.011932373 0.039886475 0.011856079 0.021499634 -0.0030078888 0.014503479 -0.0026054382 0.005870819
0.027008057 0.011199951 0.044006348 -0.0463562 0.0552063 0.0009446144 0.0012073517 0.043823242
-0.0066070557 0.0010976791 0.020996094 -0.014968872 0.014801025 -0.016448975 0.010795593 0.0082473755
-0.004142761 0.0016679764 0.025848389 0.020645142 -0.002855301 0.0138168335 0.03427124 -3.5107136e-05
-0.018203735 -0.008125305 -0.009208679 0.005256653 0.0062789917 -0.0036334991 0.00724411 0.011268616
-0.014808655 -0.010169983 0.019699097 0.025924683 -0.029769897 -0.0031280518 0.021713257 0.01576233
0.018005371 -0.011459351 0.012214661 -0.0039978027 -0.013122559 0.015640259 0.0011310577 0.0014162064
0.023803711 0.010719299 0.0129776 -0.004825592 -0.008903503 0.022842407 0.00969696 -0.0016422272
0.013496399 -0.012840271 0.019119263 0.030838013 -0.009185791 -0.01914978 0.010192871 -0.005218506
-0.01360321 0.020690918 0.0054473877 -0.008132935 -0.013496399 -0.001405716 -0.017868042 0.03640747
-0.011383057 0.011077881 0.050933838 0.022064209 -0.008331299 0.0061073303 -0.002029419 0.012420654
0.0041999817 -0.007801056 0.040985107 -0.009429932 0.016036987 -0.00762558 -0.029449463 0.009536743
0.0011291504 -0.005329132 0.0026054382 0.011627197 -0.017791748 0.007434845 -0.0062065125 -0.005882263
0.0112838745 -0.030273438 -0.0005159378 0.006351471 -0.029541016 -0.027740479 -0.009544373 -0.020187378
0.0006957054 -0.015335083 -0.015617371 -0.0206604 -0.007873535 -0.0014562607 -0.003566742 0.018249512
-0.017028809 -0.011672974 -0.019760132 0.0052719116 0.017150879 0.0088272095 -0.020401001 0.01651001
-0.014457703 -0.0070495605 -0.023742676 -0.0066070557 -0.012374878 -0.016326904 0.0042381287 0.022476196
0.01247406 -0.0051460266 0.0034160614 -0.018188477 -0.012512207 -0.0074653625 0.011306763 0.008735657
0.017227173 0.010261536 -0.0061836243 0.014221191 0.04699707 0.0067367554 -0.012031555 0.029388428
-0.0018129349 0.0014476776 -0.036865234 0.0065612793 0.02218628 -0.011810303 0.009155273 0.0032444
-0.0009317398 1.2218952e-05 -0.03062439 -0.007865906 0.019012451 -0.013771057 0.015167236 -0.00032949448
-0.012954712 0.0068130493 0.020309448 0.014183044 -0.018600464 0.01777649 0.02053833 0.0021533966
-0.015045166 -0.006549835 -0.018661499 -0.003074646 0.00096797943 -0.0024051666 0.01109314 0.010627747
0.011802673 0.0042381287 0.019683838 -0.023391724 0.0010728836 -0.013343811 -0.0015220642 -0.010017395
-0.011726379 -0.0015106201 0.006790161 -0.0087890625 -0.006717682 0.019165039 -0.0043754578 -0.0015468597
0.0056610107 -0.013671875 -5.465746e-05 0.0007953644 0.010345459 0.0010499954 -0.017852783 0.044067383
-0.0021800995 -0.0038471222 0.02330017 0.034698486 -0.014129639 0.00073957443 -0.00969696 -0.0006041527
-0.012451172 0.0012607574 0.018539429 0.0234375 0.035064697 0.0064964294 -0.007610321 0.018722534
0.0059432983 -0.011367798 0.0045814514 -0.008224487 0.035858154 0.0022964478 -0.0056610107 -0.025985718
-0.01222229 4.273653e-05 -0.015960693 -0.0078125 0.003616333 -0.01687622 -0.007850647 -0.0045166016
-0.022460938 -0.0024280548 -0.005001068 -0.040802002 0.017028809 -0.010398865 -0.0025539398 0.011245728
-0.040222168 0.0005660057 -0.0005888939 0.005126953 0.011634827 0.00028848648 -0.015304565 0.0069007874
00000000: 0080 433c 0060 233d 0040 423c 0020 b03c
00000010: 0020 45bb 00a0 6d3c 00c0 2abb 0060 c03b
00000020: 0040 dd3c 0080 373c 0040 343d 00e0 3dbd
00000030: 0020 623d 00a0 773a 0040 9e3a 0080 333d
00000040: 0080 d8bb 00e0 8f3a 0000 ac3c 0040 75bc
00000050: 0080 723c 00c0 86bc 00e0 303c 0020 073c
00000060: 00c0 87bb 00a0 da3a 00c0 d33c 0020 a93c
00000070: 0020 3bbb 0060 623c 0060 0c3d 0040 13b8
00000080: 0020 95bc 0020 05bc 00e0 16bc 0040 ac3b
00000090: 00c0 cd3b 0020 6ebb 0060 ed3b 00a0 383c
000000a0: 00a0 72bc 00a0 26bc 0060 a13c 0060 d43c
000000b0: 00e0 f3bc 0000 4dbb 00e0 b13c 0020 813c
000000c0: 0080 933c 00c0 3bbc 0020 483c 0000 83bb
000000d0: 0000 57bc 0020 803c 0040 943a 00a0 b93a
000000e0: 0000 c33c 00a0 2f3c 00a0 543c 0020 9ebb
000000f0: 00e0 11bc 0020 bb3c 00e0 1e3c 0040 d7ba
00000100: 0020 5d3c 0060 52bc 00a0 9c3c 00a0 fc3c
00000110: 0080 16bc 00e0 9cbc 0000 273c 0000 abbb
00000120: 00e0 5ebc 0080 a93c 0080 b23b 0040 05bc
00000130: 0020 5dbc 0040 b8ba 0060 92bc 0020 153d
00000140: 0080 3abc 0080 353c 00a0 503d 00c0 b43c
00000150: 0080 08bc 0020 c83b 0000 05bb 0080 4b3c
00000160: 00a0 893b 00a0 ffbb 00e0 273d 0080 1abc
00000170: 0060 833c 00e0 f9bb 0040 f1bc 0040 1c3c
00000180: 0000 943a 00a0 aebb 00c0 2a3b 0080 3e3c
00000190: 00c0 91bc 00a0 f33b 0060 cbbb 00c0 c0bb
000001a0: 00e0 383c 0000 f8bc 0040 07ba 0020 d03b
000001b0: 0000 f2bc 0040 e3bc 0060 1cbc 0060 a5bc
000001c0: 0060 363a 0040 7bbc 00e0 7fbc 0040 a9bc
000001d0: 0000 01bc 00e0 beba 00c0 69bb 0080 953c
000001e0: 0080 8bbc 0040 3fbc 00e0 a1bc 00c0 ac3b
000001f0: 0080 8c3c 00a0 103c 0020 a7bc 0040 873c
00000200: 00e0 6cbc 0000 e7bb 0080 c2bc 0080 d8bb
00000210: 00c0 4abc 00c0 85bc 00e0 8a3b 0020 b83c
00000220: 0060 4c3c 00a0 a8bb 00e0 5f3b 0000 95bc
00000230: 0000 4dbc 00a0 f4bb 0040 393c 0020 0f3c
00000240: 0020 8d3c 0020 283c 00a0 cabb 0000 693c
00000250: 0080 403d 00c0 dc3b 0020 45bc 00c0 f03c
00000260: 00a0 edba 00c0 bd3a 0000 17bd 0000 d73b
00000270: 00c0 b53c 0080 41bc 0000 163c 00a0 543b
00000280: 0040 74ba 0000 4d37 00e0 fabc 00e0 00bc
00000290: 00c0 9b3c 00a0 61bc 0080 783c 00c0 acb9
000002a0: 0040 54bc 0040 df3b 0060 a63c 0060 683c
000002b0: 0060 98bc 00a0 913c 0040 a83c 0020 0d3b
000002c0: 0080 76bc 00a0 d6bb 00e0 98bc 0080 49bb
000002d0: 00c0 7d3a 00a0 1dbb 00c0 353c 0020 2e3c
000002e0: 0060 413c 00e0 8a3b 0040 a13c 00a0 bfbc
000002f0: 00a0 8c3a 00a0 5abc 0080 c7ba 0020 24bc
00000300: 0020 40bc 0000 c6ba 0080 de3b 0000 10bc
00000310: 0020 dcbb 0000 9d3c 0060 8fbb 00c0 caba
00000320: 0080 b93b 0000 60bc 0040 65b8 0080 503a
00000330: 0080 293c 00a0 893a 0040 92bc 0080 343d
00000340: 00e0 0ebb 0020 7cbb 00e0 be3c 0020 0e3d
00000350: 0080 67bc 00e0 413a 00e0 1ebc 0060 1eba
00000360: 0000 4cbc 0040 a53a 00e0 973c 0000 c03c
00000370: 00a0 0f3d 00e0 d43b 0060 f9bb 0060 993c
00000380: 00c0 c23b 0040 3abc 0020 963b 00c0 06bc
00000390: 00e0 123d 0080 163b 0080 b9bb 00e0 d4bc
000003a0: 0040 48bc 0040 3338 00c0 82bc 0000 00bc
000003b0: 0000 6d3b 0040 8abc 00a0 00bc 0000 94bb
000003c0: 0000 b8bc 0020 1fbb 00e0 a3bb 0020 27bd
000003d0: 0080 8b3c 0060 2abc 0060 27bb 0040 383c
000003e0: 00c0 24bd 0060 143a 0060 1aba 0000 a83b
000003f0: 00a0 3e3c 0040 9739 00c0 7abc 0020 e23b

clip_l f4 [18, 768]
-0.001033783 0.018157959 0.0063705444 -0.0075035095 0.007713318 -0.013366699 -0.003145218 -0.0099487305
0.01461792 0.016555786 -0.008422852 0.0035972595 0.01222229 0.0015325546 0.0065345764 0.0013046265
-0.01838684 0.0068473816 -0.0064353943 0.008132935 -0.016464233 -0.004722595 0.020019531 -0.011207581
-0.013427734 -0.013313293 -0.005130768 0.005531311 0.09246826 0.0051841736 -0.0039138794 -0.019058228
-0.0004723072 -0.0023651123 -0.006225586 -0.030319214 0.0019664764 0.0028915405 0.000487566 0.022033691
-0.00020599365 -0.020141602 0.01991272 0.0074920654 0.013641357 0.010520935 -0.0060272217 -0.0035991669
-0.010368347 0.0005083084 0.007572174 0.0038394928 -0.011543274 -0.0008559227 0.004146576 -0.011238098
0.0014228821 0.00027394295 -0.011619568 0.016326904 0.0066184998 -0.0016222 0.0027217865 -0.017562866
0.0058135986 -0.0025787354 -0.0064697266 -0.009902954 -0.004623413 -0.0074157715 -0.008659363 -0.0069465637
-0.010551453 -0.0019893646 -0.005443573 0.007385254 0.0012197495 0.006072998 -0.043029785 -0.0056419373
-0.0057296753 0.0065307617 0.0010566711 0.010124207 -0.00023007393 0.009422302 -0.015792847 0.017547607
0.0068244934 -0.034851074 0.018554688 -0.0049057007 0.0039901733 -0.0014123917 -0.00068569183 -0.008773804
-0.022506714 -0.010787964 -0.018753052 -0.012367249 0.015792847 -0.03869629 -0.020767212 0.02381897
-0.010826111 -0.013313293 -0.010917664 -0.020019531 0.0037345886 -0.00032687187 -0.016815186 -0.013519287
0.0056152344 0.010040283 0.004169464 0.017333984 -0.012619019 -0.018844604 -0.013343811 0.0054779053
-0.005012512 -0.00491333 -0.0023937225 -0.0068626404 -0.0087509155 -0.020019531 -0.01586914 0.005706787
-0.004299164 -0.020431519 -0.004547119 0.007598877 0.020812988 -0.0010328293 -0.0077819824 0.021621704
-0.0075149536 -0.01322937 -0.006690979 0.010002136 0.0104904175 -0.014144897 -0.016815186 0.025146484
0.004333496 -0.0082092285 0.0087890625 -0.0065994263 -0.0057258606 0.029846191 -0.020233154 -0.017669678
0.020736694 -0.009567261 -0.0040245056 0.004386902 -0.008888245 -0.0060768127 -0.016098022 -0.012519836
0.007926941 -0.015975952 -0.0069236755 0.016616821 0.009162903 0.011138916 -0.0016469955 0.02420044
0.01727295 0.005016327 -0.0011701584 -0.0007429123 0.005256653 -0.017608643 0.012458801 -0.014656067
-0.0017347336 -0.0054244995 -0.013015747 0.009490967 -0.007259369 0.011146545 0.021499634 -0.007949829
0.005584717 0.004322052 0.008766174 -0.0048599243 -0.012641907 -0.00040626526 -0.0076942444 0.015731812
0.00655365 -0.0015182495 0.021835327 -0.0031280518 -0.008605957 0.0041389465 -0.000702858 -0.002040863
-0.004383087 0.0076446533 -0.00944519 0.018341064 0.024551392 -0.012908936 -0.04849243 0.0033092499
-0.012191772 -0.007019043 0.008544922 -0.0087890625 -0.004447937 -0.007019043 -0.012954712 0.0011072159
0.009239197 0.02192688 0.0013666153 -0.00088214874 0.008628845 -0.0064697266 -0.011558533 -0.0259552
-0.009819031 -0.0021095276 -0.01008606 0.0030517578 -0.020889282 -0.0009317398 -0.0068359375 -0.011260986
-0.0016765594 -0.0017023087 -0.0032405853 0.0031013489 0.002878189 -5.1140785e-05 0.010437012 0.010101318
0.0004181862 -0.01007843 -0.0014390945 -0.010948181 0.017990112 -0.018417358 -0.010002136 -0.03326416
-0.005634308 -0.010032654 -0.00030136108 0.00057315826 0.019317627 -0.014602661 -0.026763916 0.029373169
00000000: 0080 87ba 00c0 943c 00c0 d03b 00e0 f5bb
00000010: 00c0 fc3b 0000 5bbc 0020 4ebb 0000 23bc
00000020: 0080 6f3c 00a0 873c 0000 0abc 00c0 6b3b
00000030: 0040 483c 00e0 c83a 0020 d63b 0000 ab3a
00000040: 00a0 96bc 0060 e03b 00e0 d2bb 0040 053c
00000050: 00e0 86bc 00c0 9abb 0000 a43c 00a0 37bc
00000060: 0000 5cbc 0020 5abc 0020 a8bb 0040 b53b
00000070: 0060 bd3d 00e0 a93b 0040 80bb 0020 9cbc
00000080: 00a0 f7b9 0000 1bbb 0000 ccbb 0060 f8bc
00000090: 00e0 003b 0080 3d3b 00a0 ff39 0080 b43c
000000a0: 0000 58b9 0000 a5bc 0020 a33c 0080 f53b
000000b0: 0080 5f3c 0060 2c3c 0080 c5bb 00e0 6bbb
000000c0: 00e0 29bc 0040 053a 0020 f83b 00a0 7b3b
000000d0: 0020 3dbc 0060 60ba 00e0 873b 0020 38bc
000000e0: 0080 ba3a 00a0 8f39 0060 3ebc 00c0 853c
000000f0: 00e0 d83b 00a0 d4ba 0060 323b 00e0 8fbc
00000100: 0080 be3b 0000 29bb 0000 d4bb 0040 22bc
00000110: 0080 97bb 0000 f3bb 00e0 0dbc 00a0 e3bb
00000120: 00e0 2cbc 0060 02bb 0060 b2bb 0000 f23b
00000130: 00e0 9f3a 0000 c73b 0040 30bd 00e0 b8bb
00000140: 00c0 bbbb 0000 d63b 0080 8a3a 00e0 253c
00000150: 0040 71b9 0060 1a3c 0060 81bc 00c0 8f3c
00000160: 00a0 df3b 00c0 0ebd 0000 983c 00c0 a0bb
00000170: 00c0 823b 0020 b9ba 00c0 33ba 00c0 0fbc
00000180: 0060 b8bc 00c0 30bc 00a0 99bc 00a0 4abc
00000190: 0060 813c 0080 1ebd 0020 aabc 0020 c33c
000001a0: 0060 31bc 0020 5abc 00e0 32bc 0000 a4bc
000001b0: 00c0 743b 0060 abb9 00c0 89bc 0080 5dbc
000001c0: 0000 b83b 0080 243c 00a0 883b 0000 8e3c
000001d0: 00c0 4ebc 0060 9abc 00a0 5abc 0080 b33b
000001e0: 0040 a4bb 0000 a1bb 00e0 1cbb 00e0 e0bb
000001f0: 0060 0fbc 0000 a4bc 0000 82bc 0000 bb3b
00000200: 00e0 8cbb 0060 a7bc 0000 95bb 0000 f93b
00000210: 0080 aa3c 0060 87ba 0000 ffbb 0020 b13c
00000220: 0040 f6bb 00c0 58bc 0040 dbbb 00e0 233c
00000230: 00e0 2b3c 00c0 67bc 00c0 89bc 0000 ce3c
00000240: 0000 8e3b 0080 06bc 0000 103c 0040 d8bb
00000250: 00a0 bbbb 0080 f43c 00c0 a5bc 00c0 90bc
00000260: 00e0 a93c 00c0 1cbc 00e0 83bb 00c0 8f3b
00000270: 00a0 11bc 0020 c7bb 00e0 83bc 0020 4dbc
00000280: 00e0 013c 00e0 82bc 00e0 e2bb 0020 883c
00000290: 0020 163c 0080 363c 00e0 d7ba 0040 c63c
000002a0: 0080 8d3c 0060 a43b 0060 99ba 00c0 42ba
000002b0: 0040 ac3b 0040 90bc 0020 4c3c 0020 70bc
000002c0: 0060 e3ba 00c0 b1bb 0040 55bc 0080 1b3c
000002d0: 00e0 edbb 00a0 363c 0020 b03c 0040 02bc
000002e0: 0000 b73b 00a0 8d3b 00a0 0f3c 0040 9fbb
000002f0: 0020 4fbc 0000 d5b9 0020 fcbb 00e0 803c
00000300: 00c0 d63b 0000 c7ba 00e0 b23c 0000 4dbb
00000310: 0000 0dbc 00a0 873b 0040 38ba 00c0 05bb
00000320: 00a0 8fbb 0080 fa3b 00c0 1abc 0040 963c
00000330: 0020 c93c 0080 53bc 00a0 46bd 00e0 583b
00000340: 00c0 47bc 0000 e6bb 0000 0c3c 0000 10bc
00000350: 00c0 91bb 0000 e6bb 0040 54bc 0020 913a
00000360: 0060 173c 00a0 b33c 0020 b33a 0040 67ba
00000370: 0060 0d3c 0000 d4bb 0060 3dbc 00a0 d4bc
00000380: 00e0 20bc 0040 0abb 0040 25bc 0000 483b
00000390: 0020 abbc 0040 74ba 0000 e0bb 0080 38bc
000003a0: 00c0 dbba 0020 dfba 0060 54bb 0040 4b3b
000003b0: 00a0 3c3b 0080 56b8 0000 2b3c 0080 253c
000003c0: 0040 db39 0020 25bc 00a0 bcba 0060 33bc
000003d0: 0060 933c 00e0 96bc 00e0 23bc 0040 08bd
000003e0: 00a0 b8bb 0060 24bc 0000 9eb9 0040 163a
000003f0: 0040 9e3c 0040 6fbc 0040 dbbc 00a0 f03c
