General Embeddings/SDXL-Pony/SDXL-HandsNeg.safetensors (safetensors, 393368 bytes, 2 tensors)

clip_g f4 [48, 1280]
-0.010437012 -0.011444092 0.013267517 0.010810852 0.038513184 0.011680603 0.03173828 0.028381348
-0.0020484924 -0.0005054474 -0.026748657 0.0031356812 -0.013633728 -0.0025577545 0.0035591125 0.028198242
-0.01852417 0.014305115 -0.014190674 0.016616821 -0.0134887695 -0.006713867 -0.002494812 0.018447876
0.00021100044 0.022323608 -0.016906738 -0.00995636 0.024505615 0.00248909 -0.020874023 -0.004966736
-0.014945984 0.006225586 0.008117676 -0.011642456 -0.0074653625 0.016311646 -0.004825592 0.004924774
-0.010398865 -0.011550903 -0.007118225 -0.007965088 0.005241394 -0.03668213 -0.004886627 0.022827148
-0.0035629272 -0.015945435 0.021331787 -0.018371582 -0.013786316 -0.000102996826 -0.02458191 0.005634308
-0.0141067505 0.020004272 -0.026153564 -0.027694702 -0.0020370483 -0.0037956238 -0.0046081543 0.016311646
-0.024673462 0.017074585 0.017669678 0.0062561035 0.0024089813 0.022583008 0.00548172 -0.018997192
0.004764557 -0.006511688 -0.011543274 0.0115356445 0.029251099 -0.025543213 -0.007156372 0.0022029877
-0.018173218 -0.005252838 0.024902344 -0.013717651 -0.0028934479 0.012062073 -0.014533997 0.006580353
-0.011276245 -0.022644043 0.0234375 -0.01676941 -0.0070877075 -0.0041389465 -0.0016756058 -0.0023441315
-0.0054473877 -0.005645752 -0.0017528534 -0.0013217926 0.0047912598 -0.023666382 0.0149383545 -0.01600647
0.020263672 -0.010917664 -0.03967285 -0.005168915 -0.015853882 0.01247406 0.030227661 0.016189575
-0.024017334 0.008476257 -0.0015926361 -0.0071525574 0.0008993149 0.013969421 -0.0132751465 -0.0010738373
-0.0152282715 -0.0178833 -0.035614014 -0.009231567 -0.006034851 -0.004737854 -0.012924194 -0.015144348
0.00074481964 0.0069389343 0.0043525696 0.010948181 -0.004878998 0.023712158 -0.001917839 -0.0033493042
-0.021530151 -0.029815674 0.019058228 0.00017726421 0.00069761276 0.033477783 0.017318726 -0.019439697
-0.0073013306 -0.023117065 0.016036987 -0.022323608 -0.010856628 -0.015045166 -0.0025482178 0.034942627
0.0014762878 -0.026138306 0.016616821 0.018035889 -0.024765015 0.001367569 -0.0028629303 -0.0019798279
-0.024612427 0.01953125 0.0048294067 -0.015594482 0.017440796 0.02104187 -0.016830444 0.008598328
0.004837036 -0.004524231 -0.04034424 0.017089844 0.0009899139 0.007030487 0.013847351 0.026626587
-0.026855469 -0.0019874573 0.006591797 0.023223877 0.011154175 -0.0027618408 -0.027038574 -0.0032291412
0.0008559227 -0.012214661 0.0039482117 -0.005680084 -0.015464783 0.022445679 0.027053833 -0.007972717
0.028945923 -0.03616333 -0.014030457 0.013839722 0.013832092 0.009841919 0.004917145 0.020401001
0.018234253 0.0053596497 0.0001732111 0.0059547424 -0.01474762 0.025680542 0.012588501 -0.0007019043
0.011245728 0.0181427 0.00076675415 -0.010566711 0.011054993 -0.0020637512 -0.0072669983 -0.008522034
-0.027114868 -0.010681152 -0.04196167 0.015556335 0.01727295 -0.04840088 0.03756714 -0.0038051605
0.030578613 -0.026138306 0.012207031 -0.008102417 0.032562256 -0.008323669 0.0009822845 -0.00034594536
-0.013824463 0.010948181 -0.0048561096 0.008979797 0.035827637 0.007873535 0.010345459 0.021987915
0.004081726 0.009460449 4.673004e-05 0.012176514 -0.016677856 -0.015129089 -0.014503479 0.013191223
-0.030639648 0.015174866 -0.029632568 -0.030227661 -0.008491516 -0.010734558 -0.0057258606 0.025817871
00000000: 0000 2bbc 0080 3bbc 0060 593c 0020 313c
00000010: 00c0 1d3d 0060 3f3c 0000 023d 0080 e83c
00000020: 0040 06bb 0080 04ba 0020 dbbc 0080 4d3b
00000030: 0060 5fbc 00a0 27bb 0040 693b 0000 e73c
00000040: 00c0 97bc 0060 6a3c 0080 68bc 0020 883c
00000050: 0000 5dbc 0000 dcbb 0080 23bb 0020 973c
00000060: 0040 5d39 00e0 b63c 0080 8abc 0020 23bc
00000070: 00c0 c83c 0020 233b 0000 abbc 00c0 a2bb
00000080: 00e0 74bc 0000 cc3b 0000 053c 00c0 3ebc
00000090: 00a0 f4bb 00a0 853c 0020 9ebb 0060 a13b
000000a0: 0060 2abc 0040 3dbc 0040 e9bb 0080 02bc
000000b0: 00c0 ab3b 0040 16bd 0020 a0bb 0000 bb3c
000000c0: 0080 69bb 00a0 82bc 00c0 ae3c 0080 96bc
000000d0: 00e0 61bc 0000 d8b8 0060 c9bc 00a0 b83b
000000e0: 0020 67bc 00e0 a33c 0040 d6bc 00e0 e2bc
000000f0: 0080 05bb 00c0 78bb 0000 97bb 00a0 853c
00000100: 0020 cabc 00e0 8b3c 00c0 903c 0000 cd3b
00000110: 00e0 1d3b 0000 b93c 00a0 b33b 00a0 9bbc
00000120: 0020 9c3b 0060 d5bb 0020 3dbc 0000 3d3c
00000130: 00a0 ef3c 0040 d1bc 0080 eabb 0060 103b
00000140: 00e0 94bc 0020 acbb 0000 cc3c 00c0 60bc
00000150: 00a0 3dbb 00a0 453c 0020 6ebc 00a0 d73b
00000160: 00c0 38bc 0080 b9bc 0000 c03c 0060 89bc
00000170: 0040 e8bb 00a0 87bb 00a0 dbba 00a0 19bb
00000180: 0080 b2bb 0000 b9bb 00c0 e5ba 0040 adba
00000190: 0000 9d3b 00e0 c1bc 00c0 743c 0020 83bc
000001a0: 0000 a63c 00e0 32bc 0080 22bd 0060 a9bb
000001b0: 00e0 81bc 0060 4c3c 00a0 f73c 00a0 843c
000001c0: 00c0 c4bc 00e0 0a3c 00c0 d0ba 0060 eabb
000001d0: 00c0 6b3a 00e0 643c 0080 59bc 00c0 8cba
000001e0: 0080 79bc 0080 92bc 00e0 11bd 0040 17bc
000001f0: 00c0 c5bb 0040 9bbb 00c0 53bc 0020 78bc
00000200: 0040 433a 0060 e33b 00a0 8e3b 0060 333c
00000210: 00e0 9fbb 0040 c23c 0060 fbba 0080 5bbb
00000220: 0060 b0bc 0040 f4bc 0020 9c3c 00e0 3939
00000230: 00e0 363a 0020 093d 00e0 8d3c 0040 9fbc
00000240: 0040 efbb 0060 bdbc 0060 833c 00e0 b6bc
00000250: 00e0 31bc 0080 76bc 0000 27bb 0020 0f3d
00000260: 0080 c13a 0020 d6bc 0020 883c 00c0 933c
00000270: 00e0 cabc 0040 b33a 00a0 3bbb 00c0 01bb
00000280: 00a0 c9bc 0000 a03c 0040 9e3b 0080 7fbc
00000290: 00e0 8e3c 0060 ac3c 00e0 89bc 00e0 0c3c
000002a0: 0080 9e3b 0040 94bb 0040 25bd 0000 8c3c
000002b0: 00c0 813a 0060 e63b 00e0 623c 0020 da3c
000002c0: 0000 dcbc 0040 02bb 0000 d83b 0040 be3c
000002d0: 00c0 363c 0000 35bb 0080 ddbc 00a0 53bb
000002e0: 0060 603a 0020 48bc 0060 813b 0020 babb
000002f0: 0060 7dbc 00e0 b73c 00a0 dd3c 00a0 02bc
00000300: 0020 ed3c 0020 14bd 00e0 65bc 00c0 623c
00000310: 00a0 623c 0040 213c 0020 a13b 0020 a73c
00000320: 0060 953c 00a0 af3b 00a0 3539 0020 c33b
00000330: 00a0 71bc 0060 d23c 0040 4e3c 0000 38ba
00000340: 0040 383c 00a0 943c 0000 493a 0020 2dbc
00000350: 0020 353c 0040 07bb 0020 eebb 00a0 0bbc
00000360: 0020 debc 0000 2fbc 00e0 2bbd 00e0 7e3c
00000370: 0080 8d3c 0040 46bd 00e0 193d 0060 79bb
00000380: 0080 fa3c 0020 d6bc 0000 483c 00c0 04bc
00000390: 0060 053d 0060 08bc 00c0 803a 0060 b5b9
000003a0: 0080 62bc 0060 333c 0020 9fbb 0020 133c
000003b0: 00c0 123d 0000 013c 0080 293c 0020 b43c
000003c0: 00c0 853b 0000 1b3c 0000 4438 0080 473c
000003d0: 00a0 88bc 00e0 77bc 00a0 6dbc 0020 583c
000003e0: 0000 fbbc 00a0 783c 00c0 f2bc 00a0 f7bc
000003f0: 0020 0bbc 00e0 2fbc 00a0 bbbb 0080 d33c

clip_l f4 [48, 768]
0.018981934 -0.039733887 -0.0018033981 0.001909256 0.004497528 -0.014213562 0.008056641 -0.0060920715
0.0064888 -0.018112183 -0.00063705444 0.013130188 0.011146545 0.0077285767 0.00617218 0.0061950684
0.013885498 -0.005554199 0.0011997223 -0.019210815 0.015838623 0.014205933 -0.0007843971 -0.0014619827
0.0006017685 0.005584717 -0.023880005 0.02166748 0.029556274 0.0053863525 -0.01146698 -0.005142212
-0.0028591156 0.008018494 0.017807007 -0.007144928 -0.0020599365 -0.005290985 -0.0048713684 -0.019012451
0.0047683716 -0.015213013 -0.013114929 0.0025177002 -0.023468018 0.024093628 -0.016021729 -0.011688232
-0.00356102 -0.009765625 0.0008034706 -0.008331299 0.011627197 -0.013267517 -0.005004883 -0.0143966675
-0.019317627 -0.001791954 0.029037476 -0.01159668 -0.0063323975 -0.008857727 -0.0047950745 0.014808655
-0.013801575 -0.0030403137 0.0049591064 0.027496338 -0.016571045 -0.016540527 0.0143966675 -0.0018424988
-0.0075187683 0.0024318695 0.023727417 -0.019470215 -0.009140015 0.02784729 0.0158844 -0.00095558167
0.016647339 -0.0006632805 -0.016418457 0.012870789 -0.0061836243 -0.0066566467 -0.012207031 -0.0019302368
-0.022949219 0.01473999 -0.0013189316 -0.027832031 -0.003967285 0.012962341 0.0009088516 0.0049591064
0.008110046 -0.0256958 0.032226562 0.010131836 -0.0064888 -0.02633667 -0.002500534 -0.0042877197
-0.0062713623 0.008758545 -0.0010910034 -0.013580322 0.004398346 0.012138367 0.018173218 0.00969696
-0.006477356 -0.0055160522 0.0058021545 0.0057144165 0.0074920654 -0.023666382 0.0044898987 -0.007896423
-0.0116119385 0.023040771 -0.004798889 0.008354187 -0.028015137 -0.019485474 0.0021762848 0.009254456
-0.0345459 1.9848347e-05 -0.005756378 -0.0009946823 -0.006000519 0.008651733 0.0016260147 -0.015670776
-0.027923584 -0.011123657 -0.008796692 -0.0015859604 0.0004515648 0.0054397583 0.00667572 -0.0009698868
-0.0012807846 -0.020065308 0.011314392 0.006290436 -0.022232056 0.016296387 0.011993408 0.0046577454
-0.0054969788 -0.01889038 0.014282227 -0.004814148 0.006214142 0.0064353943 -0.02229309 -0.00737381
0.03225708 0.008056641 -0.017456055 -0.012184143 0.02897644 0.0022888184 0.010093689 0.005050659
-0.021575928 0.025299072 0.0008163452 -0.006626129 0.008338928 0.006362915 0.004436493 -0.01701355
-0.008026123 -0.020446777 0.015487671 0.007144928 -0.022872925 -0.008552551 0.0141067505 0.009536743
0.002407074 0.024841309 -0.00283432 -0.029083252 0.012832642 -0.009643555 0.011474609 0.013221741
0.008758545 0.0072364807 5.3048134e-05 0.025726318 -0.006412506 -0.020355225 -0.026168823 0.008422852
-0.0035972595 0.0030269623 -0.03668213 0.010215759 0.0053863525 0.011016846 -0.03201294 -0.013999939
-0.008506775 -0.02293396 0.013427734 -0.009857178 0.010635376 -0.015670776 -0.001115799 0.005592346
0.007659912 -0.009864807 0.03729248 0.004436493 0.006034851 0.004787445 -0.014053345 -0.015342712
-0.002576828 0.017105103 0.024139404 -0.004386902 0.019256592 -0.026351929 0.023956299 0.0003502369
-0.006401062 -0.0030593872 -0.0025959015 0.0014638901 0.0029144287 -0.007209778 -0.017471313 0.015838623
0.0061187744 0.0016403198 0.006679535 -0.029052734 0.0011396408 0.010917664 -0.0035858154 0.020645142
-0.00059604645 0.009010315 0.00095796585 -0.019561768 -0.014923096 -0.017654419 -0.0012340546 -0.01889038
00000000: 0080 9b3c 00c0 22bd 0060 ecba 0040 fa3a
00000010: 0060 933b 00e0 68bc 0000 043c 00a0 c7bb
00000020: 00a0 d43b 0060 94bc 0000 27ba 0020 573c
00000030: 00a0 363c 0040 fd3b 0040 ca3b 0000 cb3b
00000040: 0080 633c 0000 b6bb 0040 9d3a 0060 9dbc
00000050: 00c0 813c 00c0 683c 00a0 4dba 00a0 bfba
00000060: 00c0 1d3a 0000 b73b 00a0 c3bc 0080 b13c
00000070: 0020 f23c 0080 b03b 00e0 3bbc 0080 a8bb
00000080: 0060 3bbb 0060 033c 00e0 913c 0020 eabb
00000090: 0000 07bb 0060 adbb 00a0 9fbb 00c0 9bbc
000000a0: 0040 9c3b 0040 79bc 00e0 56bc 0000 253b
000000b0: 0040 c0bc 0060 c53c 0040 83bc 0080 3fbc
000000c0: 0060 69bb 0000 20bc 00a0 523a 0080 08bc
000000d0: 0080 3e3c 0060 59bc 0000 a4bb 00e0 6bbc
000000e0: 0040 9ebc 00e0 eaba 00e0 ed3c 0000 3ebc
000000f0: 0080 cfbb 0020 11bc 0020 9dbb 00a0 723c
00000100: 0020 62bc 0040 47bb 0080 a23b 0040 e13c
00000110: 00c0 87bc 0080 87bc 00e0 6b3c 0080 f1ba
00000120: 0060 f6bb 0060 1f3b 0060 c23c 0080 9fbc
00000130: 00c0 15bc 0020 e43c 0020 823c 0080 7aba
00000140: 0060 883c 00e0 2dba 0080 86bc 00e0 523c
00000150: 00a0 cabb 0020 dabb 0000 48bc 0000 fdba
00000160: 0000 bcbc 0080 713c 00e0 acba 0000 e4bc
00000170: 0000 82bb 0060 543c 0040 6e3a 0080 a23b
00000180: 00e0 043c 0080 d2bc 0000 043d 0000 263c
00000190: 00a0 d4bb 00c0 d7bc 00e0 23bb 0080 8cbb
000001a0: 0080 cdbb 0080 0f3c 0000 8fba 0080 5ebc
000001b0: 0020 903b 00e0 463c 00e0 943c 00e0 1e3c
000001c0: 0040 d4bb 00c0 b4bb 0020 be3b 0040 bb3b
000001d0: 0080 f53b 00e0 c1bc 0020 933b 0060 01bc
000001e0: 0040 3ebc 00c0 bc3c 0040 9dbb 00e0 083c
000001f0: 0080 e5bc 00a0 9fbc 00a0 0e3b 00a0 173c
00000200: 0080 0dbd 0080 a637 00a0 bcbb 0060 82ba
00000210: 00a0 c4bb 00c0 0d3c 0020 d53a 0060 80bc
00000220: 00c0 e4bc 0040 36bc 0020 10bc 00e0 cfba
00000230: 00c0 ec39 0040 b23b 00c0 da3b 0040 7eba
00000240: 00e0 a7ba 0060 a4bc 0060 393c 0020 ce3b
00000250: 0020 b6bc 0080 853c 0080 443c 00a0 983b
00000260: 0020 b4bb 00c0 9abc 0000 6a3c 00c0 9dbb
00000270: 00a0 cb3b 00e0 d23b 00a0 b6bc 00a0 f1bb
00000280: 0020 043d 0000 043c 0000 8fbc 00a0 47bc
00000290: 0060 ed3c 0000 163b 0060 253c 0080 a53b
000002a0: 00c0 b0bc 0040 cf3c 0000 563a 0020 d9bb
000002b0: 00a0 083c 0080 d03b 0060 913b 0060 8bbc
000002c0: 0080 03bc 0080 a7bc 00c0 7d3c 0020 ea3b
000002d0: 0060 bbbc 0020 0cbc 0020 673c 0040 1c3c
000002e0: 00c0 1d3b 0080 cb3c 00c0 39bb 0040 eebc
000002f0: 0040 523c 0000 1ebc 0000 3c3c 00a0 583c
00000300: 0080 0f3c 0020 ed3b 0080 5e38 00c0 d23c
00000310: 0020 d2bb 00c0 a6bc 0060 d6bc 0000 0a3c
00000320: 00c0 6bbb 0060 463b 0040 16bd 0060 273c
00000330: 0080 b03b 0080 343c 0020 03bd 0060 65bc
00000340: 0060 0bbc 00e0 bbbc 0000 5c3c 0080 21bc
00000350: 0040 2e3c 0060 80bc 0040 92ba 0040 b73b
00000360: 0000 fb3b 00a0 21bc 00c0 183d 0060 913b
00000370: 00c0 c53b 00e0 9c3b 0040 66bc 0060 7bbc
00000380: 00e0 28bb 0020 8c3c 00c0 c53c 00c0 8fbb
00000390: 00c0 9d3c 00e0 d7bc 0040 c43c 00a0 b739
000003a0: 00c0 d1bb 0080 48bb 0020 2abb 00e0 bf3a
000003b0: 0000 3f3b 0040 ecbb 0020 8fbc 00c0 813c
000003c0: 0080 c83b 0000 d73a 00e0 da3b 0000 eebc
000003d0: 0060 953a 00e0 323c 0000 6bbb 0020 a93c
000003e0: 0040 1cba 00a0 133c 0020 7b3a 0040 a0bc
000003f0: 0080 74bc 00a0 90bc 00c0 a1ba 00c0 9abc
