General Embeddings/SDXL-Pony/SDXL-FemaleHandDetail.safetensors (safetensors, 114840 bytes, 2 tensors)

clip_g f4 [14, 1280]
00000000: 00c0 303c 0000 3bbc 0020 b0bc 0060 75bb
00000010: 00a0 9bbc 00a0 063c 0060 093d 0080 55b8
00000020: 00c0 c53b 0060 78bc 0080 69bc 0020 24bd
00000030: 0080 ddbc 0080 b8bc 0060 cd3c 00c0 b13a
00000040: 00e0 2bbc 00c0 eb3b 00c0 cd3c 00a0 b23b
00000050: 00a0 fc3c 0080 9dbc 00c0 92bb 00a0 c3bc
00000060: 00c0 b2bc 0060 8c3c 0080 7fb8 0060 dd3b
00000070: 0060 b1ba 0020 0a3b 00a0 343c 0060 a73b
00000080: 0080 5e3c 0020 60bc 0080 a1bb 00e0 01bd
00000090: 00a0 623b 00e0 28bb 0060 13bc 00c0 783c
000000a0: 0060 dabc 0080 bb3c 0040 2fbc 0080 253c
000000b0: 0020 37bc 00e0 e8ba 00a0 1d3d 00e0 903c
000000c0: 0060 773c 0040 5fba 00c0 49bb 00c0 b83b
000000d0: 00a0 833c 0000 90ba 00e0 d7bb 00a0 4f3c
000000e0: 00c0 74bc 0040 1dbc 00a0 683c 0040 53bc
000000f0: 0080 28bb 00c0 bc3c 0060 84bb 0000 48bc
00000100: 0020 15bd 0040 b3bc 00c0 38ba 0080 bdbb
00000110: 0000 ff3b 0020 063b 0060 f93b 00e0 96bc
00000120: 0020 0c3c 00e0 343c 0080 babc 00a0 b0bc
00000130: 0020 dfbc 00c0 603c 0040 e83b 0000 253c
00000140: 0080 813c 00e0 c6bc 00e0 1dbb 00c0 463c
00000150: 00e0 c3ba 00a0 82bb 00a0 a43b 00c0 143c
00000160: 00a0 f1bb 00c0 c83b 00c0 8dbb 0020 913c
00000170: 0040 663c 0000 38bc 0020 c6bb 0040 d4bc
00000180: 0000 bebc 0020 af3c 0000 1d3c 0040 dc3a
00000190: 00a0 9b3c 0040 56bc 0040 63bc 0040 17bc
000001a0: 00c0 aabc 0000 cbbb 0020 0b3b 0060 a3bc
000001b0: 0020 de3c 00a0 943c 0080 c5bb 0020 75bc
000001c0: 0000 9a3a 0040 0abc 0020 a53b 0080 45bc
000001d0: 00a0 ffbc 00c0 96bb 0000 b0bc 0040 4e3c
000001e0: 0060 28bc 0060 0e3d 0020 c83c 00c0 803b
000001f0: 0000 e639 00c0 f83b 00e0 49bc 00c0 3c3c
00000200: 00c0 97bc 00c0 a3bc 00c0 6f3b 00c0 16bd
00000210: 0080 4abc 0000 8139 0020 06bc 0080 263c
00000220: 00c0 a3bc 0080 9cbc 00c0 6b3c 0020 043b
00000230: 0040 41bc 0080 d33c 0080 d1bc 0020 553c
00000240: 0060 03bc 0000 72bb 0020 59bc 0040 053d
00000250: 0040 923c 00e0 60ba 0040 ef3b 0060 34bc
00000260: 0060 6d3c 0000 0a3c 0080 d93c 00a0 633c
00000270: 00a0 27bc 00c0 93bc 00e0 4f3c 00c0 c6bc
00000280: 00a0 2bbc 0080 1b3b 00c0 0f3c 0080 50bc
00000290: 00a0 3bbc 00a0 8d3c 0000 6b3c 0040 02bc
000002a0: 00c0 a7bb 0080 dc3c 00e0 d7bb 0060 863b
000002b0: 0020 4b3c 0020 8cbc 0000 dfba 0060 ba3c
000002c0: 0040 c33b 0020 94bb 0020 2fbc 0040 563c
000002d0: 0060 1f3d 0040 92bb 00c0 cd3c 0060 83bb
000002e0: 0000 913c 00e0 dfbc 0080 62bb 0040 d1bc
000002f0: 0080 c3bc 0020 1bbb 00e0 023b 0020 fabc
00000300: 0000 c8bb 0060 d33c 00c0 bfbb 0060 a0bc
00000310: 0020 e93c 00c0 f93b 00e0 cb3a 0060 35bc
00000320: 0060 9ebb 0020 27bc 00a0 41bc 0000 653c
00000330: 0080 9f3b 00a0 8f3c 0060 78ba 0000 083d
00000340: 0020 76bc 0040 87bc 00c0 a7bc 0060 5dbb
00000350: 00e0 9bbb 0020 833b 0060 3d3c 00e0 aa3b
00000360: 0000 493b 0020 f0bc 0000 48bb 0080 963c
00000370: 00e0 e73c 0080 0ebc 0040 163c 0040 7fbc
00000380: 00a0 16bc 0040 d53b 0080 b73c 00a0 8e3b
00000390: 00a0 6e3b 0020 18bb 0060 1a3c 00a0 ac3b
000003a0: 00c0 b1bc 0020 62bb 0040 6dbb 0080 89bb
000003b0: 00c0 b6bc 00a0 afbc 0000 0cbb 0000 9bbc
000003c0: 0020 d1bb 00c0 9c3b 00a0 a0bb 00e0 d93b
000003d0: 0020 cbbc 0060 683c 00c0 2bbc 0060 593b
000003e0: 00e0 083c 0040 afbb 0060 2cbc 00e0 ebbc
000003f0: 0000 133c 0080 bb3b 0000 343b 0080 a4bb
0.010787964 -0.011413574 -0.021499634 -0.0037441254 -0.018997192 0.008216858 0.03353882 -5.0902367e-05
0.006034851 -0.015159607 -0.014251709 -0.04006958 -0.027038574 -0.022521973 0.02507019 0.0013561249
-0.0104904175 0.007194519 0.025115967 0.0054512024 0.030838013 -0.019226074 -0.0044784546 -0.023880005
-0.021820068 0.01713562 -6.0915947e-05 0.006755829 -0.0013532639 0.0021076202 0.011024475 0.0051078796
0.013580322 -0.013679504 -0.004928589 -0.031707764 0.003458023 -0.002576828 -0.008995056 0.015182495
-0.026657104 0.022888184 -0.010696411 0.010101318 -0.011177063 -0.0017766953 0.038482666 0.017684937
0.015098572 -0.00085163116 -0.0030784607 0.0056381226 0.016067505 -0.0010986328 -0.006587982 0.012672424
-0.0149383545 -0.009597778 0.014198303 -0.012893677 -0.002571106 0.023040771 -0.0040397644 -0.012207031
-0.03640747 -0.021881104 -0.0007047653 -0.005783081 0.0077819824 0.002046585 0.007610321 -0.018417358
0.008552551 0.011039734 -0.022766113 -0.021560669 -0.027236938 0.013717651 0.0070877075 0.010070801
0.015808105 -0.024276733 -0.0024089813 0.012130737 -0.0014944077 -0.0039863586 0.0050239563 0.0090789795
-0.00737381 0.006126404 -0.0043258667 0.017715454 0.014053345 -0.011230469 -0.006046295 -0.025909424
-0.02319336 0.021377563 0.0095825195 0.0016803741 0.018997192 -0.013076782 -0.013870239 -0.009231567
-0.020843506 -0.0061950684 0.002122879 -0.019943237 0.027114868 0.0181427 -0.0060272217 -0.014961243
0.0011749268 -0.00843811 0.005039215 -0.012054443 -0.031204224 -0.004600525 -0.021484375 0.012588501
-0.010276794 0.03475952 0.024429321 0.003929138 0.0004386902 0.0075912476 -0.012321472 0.011520386
-0.01852417 -0.019989014 0.0036582947 -0.0368042 -0.012359619 0.00024604797 -0.00818634 0.0101623535
-0.019989014 -0.019104004 0.014389038 0.0020160675 -0.011795044 0.025817871 -0.02557373 0.013008118
-0.008018494 -0.003692627 -0.013252258 0.03253174 0.017852783 -0.00085783005 0.0073013306 -0.011009216
0.01448822 0.008422852 0.026550293 0.013893127 -0.010231018 -0.018035889 0.012687683 -0.024261475
-0.010475159 0.0023727417 0.008773804 -0.01272583 -0.011451721 0.017288208 0.014343262 -0.007949829
-0.0051193237 0.026916504 -0.006587982 0.0041007996 0.012397766 -0.017105103 -0.001701355 0.022750854
0.005958557 -0.0045204163 -0.010688782 0.013076782 0.038909912 -0.004463196 0.025115967 -0.004009247
0.017700195 -0.027328491 -0.0034561157 -0.025543213 -0.023864746 -0.0023670197 0.001996994 -0.030532837
-0.0061035156 0.025802612 -0.0058517456 -0.019577026 0.028457642 0.007621765 0.0015554428 -0.011070251
-0.0048332214 -0.0102005005 -0.011817932 0.013977051 0.0048675537 0.017532349 -0.00094747543 0.033203125
-0.015022278 -0.01651001 -0.020477295 -0.0033779144 -0.0047569275 0.0040016174 0.011558533 0.005214691
0.0030670166 -0.029312134 -0.0030517578 0.018371582 0.028305054 -0.00869751 0.009170532 -0.015579224
-0.00919342 0.0065078735 0.022399902 0.0043525696 0.0036411285 -0.0023212433 0.009422302 0.005268097
-0.021697998 -0.0034503937 -0.0036201477 -0.004196167 -0.02230835 -0.021438599 -0.0021362305 -0.018920898
-0.0063819885 0.0047836304 -0.004901886 0.0066490173 -0.024795532 0.014183044 -0.010482788 0.0033168793
0.008354187 -0.0053482056 -0.010520935 -0.028793335 0.008972168 0.005722046 0.002746582 -0.0050201416

clip_l f4 [14, 768]
00000000: 0000 153c 00a0 72bb 0000 b03b 00c0 563b
00000010: 00a0 c73b 0000 eabb 0040 8cbc 00c0 9bbb
00000020: 00a0 36bc 00a0 263a 0060 5f3b 0020 8f3c
00000030: 0020 7c3c 00a0 56bc 0000 a5bc 0080 40bb
00000040: 0040 e33a 00a0 dc3b 00e0 95bc 00e0 253c
00000050: 0040 c0bb 0020 cd3b 00e0 19bc 0040 52bb
00000060: 0040 6abc 00e0 82bb 0040 82bc 00e0 883c
00000070: 00e0 cdbc 00a0 43bb 00c0 343c 0000 313c
00000080: 0000 9abb 00c0 87bc 00c0 3dbb 0060 b2bb
00000090: 00a0 0bbd 00e0 d83c 0040 a6bc 00e0 8d3b
000000a0: 00e0 3bbc 0000 403c 00c0 18bc 00c0 c03b
000000b0: 00c0 f5bb 0060 d03c 00e0 473c 00a0 5a3a
000000c0: 0040 f6bb 00c0 00bc 00a0 ca3b 0020 553c
000000d0: 0040 a83b 00a0 84bb 00a0 2fbb 00c0 0ebb
000000e0: 0000 40bc 0060 79bc 0080 543b 0000 84bb
000000f0: 0040 45bb 00e0 113c 00e0 48bc 0000 5dbc
00000100: 00a0 9f3b 00e0 b43b 0000 a1bb 00e0 e73b
00000110: 0040 3e3b 00e0 4e3c 0040 fbbb 0000 9c3b
00000120: 0040 3dbd 0080 bfbb 0020 7d3c 00e0 e4bc
00000130: 0000 e4bc 0020 2e3c 00c0 aa3c 0060 df3c
00000140: 00a0 fd3b 00e0 21bc 00e0 c53b 0000 093c
00000150: 00e0 34bb 0060 c33c 0080 2dbb 0060 05bc
00000160: 00c0 063c 00e0 293c 0060 a93c 00a0 013c
00000170: 0060 13bc 00e0 5a3c 00a0 3ebb 00c0 e1bb
00000180: 00c0 90bc 0000 dfbc 0060 adbc 0000 c6bb
00000190: 0060 173c 00c0 ddbb 0040 ce3a 0060 7d3b
000001a0: 0040 b43c 0060 6b3c 00a0 623b 0060 90bb
000001b0: 00e0 bcbb 0080 69bc 0060 313b 0060 713c
000001c0: 00c0 ccbc 0040 4d3b 0000 b9bb 00e0 c6bb
000001d0: 00a0 73ba 0000 853b 0020 bb39 0020 8eba
000001e0: 00a0 abbc 00a0 a33b 0040 103c 0060 6bbc
000001f0: 0080 daba 00a0 b43c 0080 d13c 00c0 bb3c
00000200: 00a0 e03b 0080 40bb 00a0 f2b8 00a0 1fbc
00000210: 00c0 0e3c 00a0 4f3c 00a0 6ebc 0020 a0bb
00000220: 0000 b3bc 00e0 d63b 0060 90bc 0000 a13c
00000230: 0040 463a 0020 f83c 0020 96bc 0060 4cbc
00000240: 00a0 69bb 0060 313c 0060 23bc 0080 d03b
00000250: 0040 ee3c 0080 e13b 00a0 d3bc 0000 3b3c
00000260: 00a0 8ebb 00c0 223b 0000 3abc 0080 943c
00000270: 00a0 43bc 00e0 3b3b 00a0 b9bc 0000 543c
00000280: 00c0 44bb 0080 ecba 0080 de3b 0000 2e3a
00000290: 0000 093b 0000 6bbc 0040 0a3b 0060 cdba
000002a0: 0060 5fbc 0060 373c 0040 963b 00a0 82bb
000002b0: 0060 0e3c 0020 2cbc 0080 c137 00a0 40bc
000002c0: 00e0 4cbc 0060 823c 0080 69bb 0000 9cbb
000002d0: 00a0 8b3b 00e0 1dbc 0000 353c 00a0 963c
000002e0: 0000 cc3b 0000 103c 00a0 433c 0000 22bc
000002f0: 00e0 433c 00e0 9abb 0000 aabb 00c0 dcbb
00000300: 0080 19bc 0080 f93c 0060 293c 0000 84bb
00000310: 00a0 bd3a 0040 843c 00e0 6c3b 00a0 8bbc
00000320: 0020 ed39 0000 0b3c 0020 15bc 00c0 d03b
00000330: 00a0 b03c 00e0 92bc 0060 f83c 0060 29bc
00000340: 00e0 323c 0000 df3b 00a0 b73c 0020 a4bc
00000350: 00c0 4cbc 00a0 a43b 0000 a23c 0080 a5bb
00000360: 0000 553b 0080 94bb 0040 32bc 0040 3fbc
00000370: 0080 8d3c 00a0 403c 00a0 7ebc 00c0 9cbb
00000380: 00a0 1b3d 00e0 a5bc 0000 883c 00a0 e83a
00000390: 0040 e43c 0060 52bc 0080 e73b 0000 1e3b
000003a0: 00a0 1dbc 0040 06bb 0040 a23c 00e0 ba3c
000003b0: 0000 313a 0040 4dbc 00c0 a33b 0000 56bc
000003c0: 0080 94bc 0000 443c 00c0 59bb 0000 5bbb
000003d0: 0000 103c 0040 6abc 00c0 103c 0000 343b
000003e0: 00c0 55bc 00c0 5fba 00c0 70bb 00a0 5cbc
000003f0: 0000 8bbb 00a0 1ebd 00e0 9539 0000 393c
0.009094238 -0.0037021637 0.0053710938 0.003276825 0.0060920715 -0.0071411133 -0.017120361 -0.004753113
-0.011146545 0.00063562393 0.003408432 0.017471313 0.015388489 -0.01309967 -0.020141602 -0.002937317
0.0017337799 0.0067329407 -0.018295288 0.010124207 -0.0058670044 0.006259918 -0.009391785 -0.0032081604
-0.014297485 -0.003993988 -0.015899658 0.016708374 -0.025131226 -0.0029850006 0.0110321045 0.010803223
-0.004699707 -0.016571045 -0.0028953552 -0.005443573 -0.034088135 0.026473999 -0.02029419 0.0043296814
-0.01146698 0.01171875 -0.00932312 0.005882263 -0.007499695 0.025436401 0.012199402 0.0008339882
-0.0075149536 -0.007858276 0.0061836243 0.013008118 0.0051345825 -0.004047394 -0.0026798248 -0.0021781921
-0.01171875 -0.015220642 0.0032424927 -0.0040283203 -0.0030097961 0.008903503 -0.012260437 -0.0134887695
0.0048713684 0.005519867 -0.00491333 0.0070762634 0.0029029846 0.012626648 -0.0076675415 0.004760742
-0.046203613 -0.005844116 0.015449524 -0.027938843 -0.027832031 0.010627747 0.020843506 0.027267456
0.0077400208 -0.009880066 0.006038666 0.008361816 -0.0027599335 0.023849487 -0.0026474 -0.008140564
0.008224487 0.010368347 0.02067566 0.007911682 -0.008995056 0.01335907 -0.0029087067 -0.0068893433
-0.017669678 -0.02722168 -0.02116394 -0.0060424805 0.009239197 -0.006767273 0.0015735626 0.0038661957
0.022003174 0.01436615 0.003458023 -0.0044059753 -0.0057640076 -0.014251709 0.0027065277 0.014732361
-0.024993896 0.0031318665 -0.005645752 -0.0060691833 -0.0009293556 0.004058838 0.0003569126 -0.0010843277
-0.020950317 0.0049934387 0.008804321 -0.01436615 -0.0016670227 0.02204895 0.02557373 0.022918701
0.006855011 -0.002937317 -0.000115692616 -0.009742737 0.008712769 0.012672424 -0.014564514 -0.004886627
-0.021850586 0.0065574646 -0.017623901 0.01965332 0.00075626373 0.030288696 -0.018325806 -0.01247406
-0.0035648346 0.010826111 -0.009971619 0.006362915 0.029083252 0.006881714 -0.02583313 0.011413574
-0.0043525696 0.002483368 -0.011352539 0.018127441 -0.011940002 0.002866745 -0.022659302 0.012939453
-0.0030021667 -0.0018043518 0.006790161 0.0006637573 0.002090454 -0.014343262 0.0021095276 -0.0015668869
-0.013633728 0.011192322 0.004585266 -0.0039863586 0.00868988 -0.010505676 2.3066998e-05 -0.011756897
-0.012504578 0.015914917 -0.0035629272 -0.004760742 0.004261017 -0.009635925 0.011047363 0.01838684
0.006225586 0.0087890625 0.011940002 -0.009887695 0.011955261 -0.00472641 -0.0051879883 -0.0067367554
-0.0093688965 0.030456543 0.01033783 -0.0040283203 0.0014467239 0.016143799 0.0036144257 -0.017044067
0.00045228004 0.008483887 -0.009101868 0.0063705444 0.021560669 -0.017929077 0.030319214 -0.01033783
0.010917664 0.00680542 0.022415161 -0.02003479 -0.012496948 0.0050239563 0.01977539 -0.005050659
0.003250122 -0.0045318604 -0.010879517 -0.011672974 0.01727295 0.011756897 -0.015541077 -0.0047836304
0.037994385 -0.020248413 0.016601562 0.0017747879 0.027862549 -0.012840271 0.0070648193 0.0024108887
-0.0096206665 -0.0020484924 0.019805908 0.02281189 0.0006752014 -0.012527466 0.0049972534 -0.013061523
-0.018127441 0.011962891 -0.0033226013 -0.0033416748 0.0087890625 -0.014297485 0.008834839 0.002746582
-0.013046265 -0.0008535385 -0.0036735535 -0.013465881 -0.0042419434 -0.038726807 0.00028586388 0.011291504
