General Embeddings/SDXL-Pony/SDXL-NSFWEm.safetensors (safetensors, 65688 bytes, 2 tensors)

clip_g f4 [8, 1280]
0.0041160583 -0.004425049 -0.0107803345 0.0010404587 -0.015960693 -0.014297485 0.0044784546 0.035125732
0.0129852295 0.01600647 -0.0063934326 -0.029022217 -0.009925842 -0.021209717 0.007873535 0.0010509491
0.004547119 -0.013435364 -0.0018539429 -0.02281189 -0.0060653687 -0.00141716 -0.00592041 0.009559631
0.004699707 0.0074272156 0.01171875 0.0031414032 -0.008636475 -0.0033340454 -0.0013380051 -0.0033092499
0.012870789 0.008354187 -0.01525116 -0.010124207 0.005153656 -0.0033416748 -0.004085541 -0.0056152344
0.0030174255 -0.011054993 -0.015319824 -0.006755829 0.008872986 0.0041007996 -0.0005631447 -0.011642456
-0.008728027 -0.017578125 -0.008171082 0.0014009476 -0.019989014 0.023483276 -0.0075531006 5.64456e-05
0.0005297661 -0.0053100586 -0.012840271 0.004283905 0.024307251 -0.0028972626 -0.016021729 -0.016815186
0.020233154 0.014045715 0.009971619 0.0062446594 -0.0118637085 0.010810852 -0.0029182434 0.012565613
-0.0049438477 -0.0018882751 -0.006641388 0.011276245 0.0035514832 0.00440979 0.02357483 0.0016269684
-0.014320374 -0.004142761 0.0025520325 0.015090942 -0.0013942719 0.0054016113 -0.0066108704 -0.007972717
-0.006729126 0.0075798035 0.0031585693 0.0044822693 -0.014694214 9.381771e-05 0.0067596436 -0.020996094
-0.012283325 0.0032196045 -0.0048713684 -0.0058517456 -0.0077781677 0.016601562 -0.011779785 -0.013420105
0.008308411 -0.0041122437 0.0035324097 0.005622864 0.0134887695 -0.00274086 -0.005760193 -0.002588272
-0.017700195 0.00076007843 -0.0035991669 0.004737854 0.018753052 0.014907837 -0.013664246 -0.0067749023
-0.00137043 0.013221741 0.007789612 0.004283905 0.0001487732 0.0017118454 -0.0031585693 0.00049972534
0.007270813 0.0035591125 0.021774292 -0.012138367 -0.0099487305 -0.016830444 -0.0041389465 -0.021057129
0.002325058 0.002960205 0.0045547485 -0.0023212433 -0.010871887 0.019073486 0.0026760101 0.0049934387
0.007381439 -0.009155273 -0.015167236 0.014884949 -0.013397217 0.004650116 -0.0024547577 0.0035533905
0.022018433 0.02017212 -0.0008134842 0.023971558 -0.001036644 0.011138916 0.02053833 -0.026321411
-0.014640808 -0.015266418 -0.012878418 0.015686035 -0.008262634 -0.0076141357 0.016174316 0.0014047623
-0.004508972 -0.014511108 0.0067825317 -0.009178162 -0.034301758 -6.67572e-05 0.0034065247 -0.005947113
0.0058631897 0.0045547485 0.011138916 0.021697998 0.020233154 -0.006980896 0.0015144348 0.02178955
-0.02218628 -0.0154418945 0.0031414032 0.0029182434 -0.0013313293 0.002204895 -0.0031318665 -0.02178955
0.009902954 -0.011177063 0.0076446533 0.0019035339 0.01348114 -0.0010528564 0.003768921 -0.011161804
0.018447876 -0.013999939 0.005332947 0.009407043 0.014442444 -0.010215759 -0.024108887 -0.0039901733
0.0038547516 -0.0048294067 -0.043762207 -0.00074005127 -0.004432678 -0.0051956177 -0.008201599 -0.007221222
-0.016113281 -0.015075684 -0.014427185 0.013626099 0.0027008057 0.0053710938 0.0047416687 0.0010652542
0.0021457672 -0.0030384064 0.0034637451 0.010482788 -0.011802673 -0.00044751167 -0.008544922 0.0019550323
-0.012840271 0.008934021 -0.0018672943 -0.0056915283 -0.007888794 0.0042877197 -0.01777649 0.010345459
0.00049877167 -0.0019130707 -0.035461426 0.0021018982 -0.0074386597 -0.0060424805 0.01637268 0.008056641
0.021942139 0.019989014 -0.01121521 0.0006637573 -0.007408142 0.0019416809 0.002822876 -0.0061454773
00000000: 00e0 863b 0000 91bb 00a0 30bc 0060 883a
00000010: 00c0 82bc 0040 6abc 00c0 923b 00e0 0f3d
00000020: 00c0 543c 0020 833c 0080 d1bb 00c0 edbc
00000030: 00a0 22bc 00c0 adbc 0000 013c 00c0 893a
00000040: 0000 953b 0020 5cbc 0000 f3ba 00e0 babc
00000050: 00c0 c6bb 00c0 b9ba 0000 c2bb 00a0 1c3c
00000060: 0000 9a3b 0060 f33b 0000 403c 00e0 4d3b
00000070: 0080 0dbc 0080 5abb 0060 afba 00e0 58bb
00000080: 00e0 523c 00e0 083c 00e0 79bc 00e0 25bc
00000090: 00e0 a83b 0000 5bbb 00e0 85bb 0000 b8bb
000000a0: 00c0 453b 0020 35bc 0000 7bbc 0060 ddbb
000000b0: 0060 113c 0060 863b 00a0 13ba 00c0 3ebc
000000c0: 0000 0fbc 0000 90bc 00e0 05bc 00a0 b73a
000000d0: 00c0 a3bc 0060 c03c 0080 f7bb 00c0 6c38
000000e0: 00e0 0a3a 0000 aebb 0060 52bc 0060 8c3b
000000f0: 0020 c73c 00e0 3dbb 0040 83bc 00c0 89bc
00000100: 00c0 a53c 0020 663c 0060 233c 00a0 cc3b
00000110: 0060 42bc 0020 313c 0040 3fbb 00e0 4d3c
00000120: 0000 a2bb 0080 f7ba 00a0 d9bb 00c0 383c
00000130: 00c0 683b 0080 903b 0020 c13c 0040 d53a
00000140: 00a0 6abc 00c0 87bb 0040 273b 0040 773c
00000150: 00c0 b6ba 0000 b13b 00a0 d8bb 00a0 02bc
00000160: 0080 dcbb 0060 f83b 0000 4f3b 00e0 923b
00000170: 00c0 70bc 00c0 c438 0080 dd3b 0000 acbc
00000180: 0040 49bc 0000 533b 00a0 9fbb 00c0 bfbb
00000190: 00e0 febb 0000 883c 0000 41bc 00e0 5bbc
000001a0: 0020 083c 00c0 86bb 0080 673b 0040 b83b
000001b0: 0000 5d3c 00a0 33bb 00c0 bcbb 00a0 29bb
000001c0: 0000 91bc 0040 473a 00e0 6bbb 0040 9b3b
000001d0: 00a0 993c 0040 743c 00e0 5fbc 0000 debb
000001e0: 00a0 b3ba 00a0 583c 0040 ff3b 0060 8c3b
000001f0: 0000 1c39 0060 e03a 0000 4fbb 0000 033a
00000200: 0040 ee3b 0040 693b 0060 b23c 00e0 46bc
00000210: 0000 23bc 00e0 89bc 00a0 87bb 0080 acbc
00000220: 0060 183b 0000 423b 0040 953b 0020 18bb
00000230: 0020 32bc 0040 9c3c 0060 2f3b 00a0 a33b
00000240: 00e0 f13b 0000 16bc 0080 78bc 00e0 733c
00000250: 0080 5bbc 0060 983b 00e0 20bb 00e0 683b
00000260: 0060 b43c 0040 a53c 0040 55ba 0060 c43c
00000270: 00e0 87ba 0080 363c 0040 a83c 00a0 d7bc
00000280: 00e0 6fbc 0020 7abc 0000 53bc 0080 803c
00000290: 0060 07bc 0080 f9bb 0080 843c 0020 b83a
000002a0: 00c0 93bb 00c0 6dbc 0040 de3b 0060 16bc
000002b0: 0080 0cbd 0000 8cb8 0040 5f3b 00e0 c2bb
000002c0: 0020 c03b 0040 953b 0080 363c 00c0 b13c
000002d0: 00c0 a53c 00c0 e4bb 0080 c63a 0080 b23c
000002e0: 00c0 b5bc 0000 7dbc 00e0 4d3b 0040 3f3b
000002f0: 0080 aeba 0080 103b 0040 4dbb 0080 b2bc
00000300: 0040 223c 0020 37bc 0080 fa3b 0080 f93a
00000310: 00e0 5c3c 0000 8aba 0000 773b 00e0 36bc
00000320: 0020 973c 0060 65bc 00c0 ae3b 0020 1a3c
00000330: 00a0 6c3c 0060 27bc 0080 c5bc 00c0 82bb
00000340: 00a0 7c3b 0040 9ebb 0040 33bd 0000 42ba
00000350: 0040 91bb 0040 aabb 0060 06bc 00a0 ecbb
00000360: 0000 84bc 0000 77bc 0060 6cbc 0040 5f3c
00000370: 0000 313b 0000 b03b 0060 9b3b 00a0 8b3a
00000380: 00a0 0c3b 0020 47bb 0000 633b 00c0 2b3c
00000390: 0060 41bc 00a0 eab9 0000 0cbc 0020 003b
000003a0: 0060 52bc 0060 123c 00c0 f4ba 0080 babb
000003b0: 0040 01bc 0080 8c3b 00a0 91bc 0080 293c
000003c0: 00c0 023a 00c0 faba 0040 11bd 00c0 093b
000003d0: 00c0 f3bb 0000 c6bb 0020 863c 0000 043c
000003e0: 00c0 b33c 00c0 a33c 00c0 37bc 0000 2e3a
000003f0: 00c0 f2bb 0080 fe3a 0000 393b 0060 c9bb

clip_l f4 [8, 768]
0.026321411 -0.019088745 0.01776123 -0.0007162094 -0.021453857 0.003522873 0.009437561 0.0146865845
-0.011711121 0.019622803 -0.009307861 -0.002571106 0.021072388 0.01838684 0.0021972656 0.010696411
-0.004562378 -0.009231567 0.025680542 -0.011856079 -0.019989014 -0.004459381 -0.0209198 0.0065460205
0.018341064 0.005393982 -0.012397766 -0.009162903 -0.0052490234 0.014076233 -0.005443573 0.0067710876
-0.0020618439 0.018203735 0.021255493 0.007247925 -0.008407593 -0.0025482178 0.030654907 0.013374329
-0.0064582825 -0.0013599396 0.033569336 0.006340027 0.0098724365 -0.007381439 0.002357483 0.0079574585
0.026504517 0.012771606 -0.0015134811 0.0110321045 -0.0034255981 -0.013130188 -0.007293701 0.0063667297
0.005844116 0.01737976 0.0038223267 -0.024795532 0.018325806 -0.01374054 0.017562866 -0.010261536
-0.006526947 0.01826477 0.0013055801 -0.0018672943 -0.02748108 -0.03375244 0.005859375 -0.0050735474
0.028213501 0.010597229 0.011695862 -0.017181396 0.036865234 0.016235352 -0.00026249886 -0.005001068
-0.0121536255 0.0038604736 -0.008232117 -0.020584106 0.004508972 0.009796143 0.01701355 -0.013435364
-0.0068511963 -0.0047569275 0.0129470825 -0.015106201 -0.0071487427 -0.0038089752 -0.012245178 -0.007713318
-0.016281128 -0.00032281876 -0.009605408 0.00077724457 0.0013122559 0.0007352829 -0.012062073 0.019882202
0.0064468384 -0.0068206787 -0.008026123 -0.0022506714 -0.010734558 -0.017745972 -0.00018918514 -0.023880005
-0.018234253 0.009231567 -0.007621765 0.015838623 0.002960205 -0.00819397 -0.017807007 -0.00033330917
-0.016342163 0.00374794 0.015182495 -0.012420654 0.02947998 0.030975342 -0.009254456 0.012580872
0.010627747 -0.009567261 0.004901886 -0.0077781677 0.0149002075 0.027740479 0.006137848 0.0065689087
0.0020065308 -0.007209778 -0.001455307 -0.015296936 0.024993896 -0.0059661865 -0.0025310516 -0.011398315
-0.005016327 0.022506714 0.034820557 0.0026493073 -0.0072631836 0.0010528564 0.011886597 -0.0023670197
-0.011482239 -0.022125244 -0.0029945374 -0.01259613 -0.008239746 0.011329651 0.003255844 -0.005973816
0.012397766 0.012466431 0.005130768 0.0014514923 -0.0065956116 -0.028961182 0.021255493 0.0015335083
0.029953003 0.020965576 0.004283905 -0.01953125 -0.011695862 0.008872986 -0.0048294067 0.004070282
-0.006591797 0.012268066 -0.018630981 0.00015330315 0.0064430237 0.02520752 0.02432251 0.004501343
-0.014953613 -0.003118515 -0.022903442 -0.0027160645 0.019302368 -0.014297485 0.0031261444 -0.007686615
-0.00052785873 -0.019607544 0.009719849 0.014472961 -0.0029449463 0.009300232 0.0032157898 0.0018224716
-0.010124207 -0.002664566 0.0032234192 -0.009246826 0.005306244 -0.014427185 -0.016204834 0.024490356
0.00983429 -0.0059318542 0.00058221817 -0.006942749 0.024490356 -0.0069847107 0.012886047 0.0041999817
0.019744873 0.026382446 -0.0022735596 -0.012802124 0.029525757 -0.0030918121 -0.025299072 -0.005718231
0.008468628 -0.002313614 -0.0015487671 -0.001045227 -0.0017299652 -0.015975952 -0.00049495697 0.021057129
-0.0044441223 -0.003440857 -0.010185242 0.017120361 0.03314209 -0.003063202 -0.020248413 -0.009170532
-0.022354126 0.025726318 0.012176514 -0.013298035 0.00630188 0.0057640076 -0.0032196045 -0.014350891
0.003944397 0.013580322 -0.009101868 0.011070251 0.017425537 -0.015403748 0.007095337 0.004814148
00000000: 00a0 d73c 0060 9cbc 0080 913c 00c0 3bba
00000010: 00c0 afbc 00e0 663b 00a0 1a3c 00a0 703c
00000020: 00e0 3fbc 00c0 a03c 0080 18bc 0080 28bb
00000030: 00a0 ac3c 00a0 963c 0000 103b 0040 2f3c
00000040: 0080 95bb 0040 17bc 0060 d23c 0040 42bc
00000050: 00c0 a3bc 0020 92bb 0060 abbc 0080 d63b
00000060: 0040 963c 00c0 b03b 0020 4bbc 0020 16bc
00000070: 0000 acbb 00a0 663c 0060 b2bb 00e0 dd3b
00000080: 0020 07bb 0020 953c 0020 ae3c 0080 ed3b
00000090: 00c0 09bc 0000 27bb 0020 fb3c 0020 5b3c
000000a0: 00a0 d3bb 0040 b2ba 0080 093d 00c0 cf3b
000000b0: 00c0 213c 00e0 f1bb 0080 1a3b 0060 023c
000000c0: 0020 d93c 0040 513c 0060 c6ba 00c0 343c
000000d0: 0080 60bb 0020 57bc 0000 efbb 00a0 d03b
000000e0: 0080 bf3b 0060 8e3c 0080 7a3b 0020 cbbc
000000f0: 0020 963c 0020 61bc 00e0 8f3c 0020 28bc
00000100: 00e0 d5bb 00a0 953c 0020 ab3a 00c0 f4ba
00000110: 0020 e1bc 0040 0abd 0000 c03b 0040 a6bb
00000120: 0020 e73c 00a0 2d3c 00a0 3f3c 00c0 8cbc
00000130: 0000 173d 0000 853c 00a0 89b9 00e0 a3bb
00000140: 0020 47bc 0000 7d3b 00e0 06bc 00a0 a8bc
00000150: 00c0 933b 0080 203c 0060 8b3c 0020 5cbc
00000160: 0080 e0bb 00e0 9bbb 0020 543c 0080 77bc
00000170: 0040 eabb 00a0 79bb 00a0 48bc 00c0 fcbb
00000180: 0060 85bc 0040 a9b9 0060 1dbc 00c0 4b3a
00000190: 0000 ac3a 00c0 403a 00a0 45bc 00e0 a23c
000001a0: 0040 d33b 0080 dfbb 0080 03bc 0080 13bb
000001b0: 00e0 2fbc 0060 91bc 0060 46b9 00a0 c3bc
000001c0: 0060 95bc 0040 173c 00c0 f9bb 00c0 813c
000001d0: 0000 423b 0040 06bc 00e0 91bc 00c0 aeb9
000001e0: 00e0 85bc 00a0 753b 00c0 783c 0080 4bbc
000001f0: 0080 f13c 00c0 fd3c 00a0 17bc 0020 4e3c
00000200: 0020 2e3c 00c0 1cbc 00a0 a03b 00e0 febb
00000210: 0020 743c 0040 e33c 0020 c93b 0040 d73b
00000220: 0080 033b 0040 ecbb 00c0 beba 00a0 7abc
00000230: 00c0 cc3c 0080 c3bb 00e0 25bb 00c0 3abc
00000240: 0060 a4bb 0060 b83c 00a0 0e3d 00a0 2d3b
00000250: 0000 eebb 0000 8a3a 00c0 423c 0020 1bbb
00000260: 0020 3cbc 0040 b5bc 0040 44bb 0060 4ebc
00000270: 0000 07bc 00a0 393c 0060 553b 00c0 c3bb
00000280: 0020 4b3c 0040 4c3c 0020 a83b 0040 be3a
00000290: 0020 d8bb 0040 edbc 0020 ae3c 0000 c93a
000002a0: 0060 f53c 00c0 ab3c 0060 8c3b 0000 a0bc
000002b0: 00a0 3fbc 0060 113c 0040 9ebb 0060 853b
000002c0: 0000 d8bb 0000 493c 00a0 98bc 00c0 2039
000002d0: 0020 d33b 0080 ce3c 0040 c73c 0080 933b
000002e0: 0000 75bc 0060 4cbb 00a0 bbbc 0000 32bb
000002f0: 0020 9e3c 0040 6abc 00e0 4c3b 00e0 fbbb
00000300: 0060 0aba 00a0 a0bc 0040 1f3c 0020 6d3c
00000310: 0000 41bb 0060 183c 00c0 523b 00e0 ee3a
00000320: 00e0 25bc 00a0 2ebb 0040 533b 0080 17bc
00000330: 00e0 ad3b 0060 6cbc 00c0 84bc 00a0 c83c
00000340: 0020 213c 0060 c2bb 00a0 183a 0080 e3bb
00000350: 00a0 c83c 00e0 e4bb 0020 533c 00a0 893b
00000360: 00c0 a13c 0020 d83c 0000 15bb 00c0 51bc
00000370: 00e0 f13c 00a0 4abb 0040 cfbc 0060 bbbb
00000380: 00c0 0a3c 00a0 17bb 0000 cbba 0000 89ba
00000390: 00c0 e2ba 00e0 82bc 00c0 01ba 0080 ac3c
000003a0: 00a0 91bb 0080 61bb 00e0 26bc 0040 8c3c
000003b0: 00c0 073d 00c0 48bb 00e0 a5bc 0040 16bc
000003c0: 0020 b7bc 00c0 d23c 0080 473c 00e0 59bc
000003d0: 0080 ce3b 00e0 bc3b 0000 53bb 0020 6bbc
000003e0: 0040 813b 0080 5e3c 0020 15bc 0060 353c
000003f0: 00c0 8e3c 0060 7cbc 0080 e83b 00c0 9d3b
