General Embeddings/SDXL-Pony/SDXL-EyeDetail.safetensors (safetensors, 163992 bytes, 2 tensors)

clip_g f4 [20, 1280]
0	0xbc868000	-0.016418457
1	0xbc1ec000	-0.009689331
2	0x3c0be000	0.0085372925
3	0x3ab9a000	0.0014162064
4	0x3bf3e000	0.0074424744
5	0x3c1cc000	0.009567261
6	0xbbce0000	-0.006286621
7	0xbbf90000	-0.007598877
8	0x3cb0a000	0.021560669
9	0xbcb92000	-0.022598267
10	0x3c280000	0.010253906
11	0x3c586000	0.013206482
12	0xb9222000	-0.00015461445
13	0x3c246000	0.010032654
14	0x3b102000	0.002199173
15	0xbc378000	-0.011199951
16	0xbbb32000	-0.005466461
17	0xbba02000	-0.004886627
18	0x3c202000	0.009773254
19	0x3c080000	0.008300781
20	0xbc656000	-0.013999939
21	0xbc8f6000	-0.017501831
22	0x3be3a000	0.0069465637
23	0xbc86c000	-0.016448975
24	0x391c8000	0.00014925003
25	0xbccd6000	-0.02507019
26	0xbb3a6000	-0.0028438568
27	0x3cf2e000	0.029647827
28	0xbcbbc000	-0.022918701
29	0x3ca32000	0.01991272
30	0x3cd4c000	0.025970459
31	0xbc24a000	-0.010047913
32	0x3bf8a000	0.007587433
33	0xbb894000	-0.0041885376
34	0xbc0b0000	-0.008483887
35	0x3ca06000	0.019577026
36	0x3c3cc000	0.011520386
37	0x3c1a0000	0.009399414
38	0xbc2a6000	-0.010398865
39	0x3c2b0000	0.010437012
40	0xbb9ba000	-0.004749298
41	0x3bdbc000	0.006706238
42	0xbc320000	-0.010864258
43	0x3b7a8000	0.0038223267
44	0xbc41c000	-0.0118255615
45	0x3bd64000	0.006538391
46	0x3c90e000	0.017684937
47	0xbc526000	-0.012840271
48	0x3b43e000	0.0029888153
49	0xbb7ce000	-0.0038585663
50	0xbbd80000	-0.006591797
51	0x3b472000	0.0030384064
52	0x3af72000	0.0018854141
53	0x3b8fc000	0.004386902
54	0xbb98c000	-0.00466156
55	0xbb1b6000	-0.0023708344
56	0xbc59c000	-0.013290405
57	0x3b76c000	0.0037651062
58	0x3c1da000	0.0096206665
59	0x3aa54000	0.0012607574
60	0xbbc14000	-0.005897522
61	0xbc1ae000	-0.00945282
62	0x3be36000	0.0069389343
63	0xbc8a0000	-0.016845703
64	0x3c45a000	0.012062073
65	0xbc880000	-0.016601562
66	0x3c26c000	0.010177612
67	0xbafc2000	-0.0019235611
68	0xb9c04000	-0.00036668777
69	0x3b95c000	0.0045700073
70	0x3bbc0000	0.0057373047
71	0xbbaa2000	-0.005191803
72	0xbbe72000	-0.0070533752
73	0x3b888000	0.0041656494
74	0x3cb5e000	0.022201538
75	0xbc802000	-0.015640259
76	0x3c154000	0.009109497
77	0xbc4de000	-0.012565613
78	0x3c024000	0.007949829
79	0x3c904000	0.017608643
80	0x3b538000	0.003227234
81	0xbc0aa000	-0.008460999
82	0x3c3a0000	0.011352539
83	0x3c86e000	0.016464233
84	0x3c338000	0.010955811
85	0xbcf1c000	-0.029510498
86	0x3b650000	0.0034942627
87	0xbc936000	-0.017990112
88	0x3bdb4000	0.006690979
89	0x3b37c000	0.0028038025
90	0xbca74000	-0.02041626
91	0xbb404000	-0.0029335022
92	0xbc376000	-0.011192322
93	0x3c726000	0.014793396
94	0x39562000	0.00020420551
95	0xbc856000	-0.016281128
96	0x3c91c000	0.017791748
97	0xbc8a2000	-0.016860962
98	0xbacb0000	-0.0015487671
99	0x3b95c000	0.0045700073
100	0xbc6e4000	-0.014541626
101	0xbb814000	-0.003944397
102	0xbb7fe000	-0.0039043427
103	0x3c882000	0.016616821
104	0xbbfc6000	-0.007701874
105	0x3bd20000	0.0064086914
106	0x3c756000	0.014976501
107	0xbb78e000	-0.0037975311
108	0x3c662000	0.014045715
109	0xbae6c000	-0.0017604828
110	0x3c65c000	0.014022827
111	0xbc592000	-0.013252258
112	0xbb2d6000	-0.0026454926
113	0x3c376000	0.011192322
114	0x3d1a6000	0.03768921
115	0xbb4ec000	-0.0031547546
116	0xbbdd2000	-0.0067481995
117	0xbc1e0000	-0.009643555
118	0x3a8f4000	0.0010929108
119	0x3c19e000	0.009391785
120	0xbc224000	-0.009902954
121	0x3c24a000	0.010047913
122	0xbb2b8000	-0.0026168823
123	0xbc056000	-0.008140564
124	0x3bb9a000	0.0056648254
125	0x3b15e000	0.002286911
126	0xbca2e000	-0.019882202
127	0xbc278000	-0.010223389
128	0x3cf80000	0.030273438
129	0xbc97e000	-0.018539429
130	0xbc0ca000	-0.008583069
131	0x3b4c6000	0.003118515
132	0x3c6f4000	0.014602661
133	0xbca70000	-0.020385742
134	0xbbaf0000	-0.005340576
135	0x3c086000	0.008323669
136	0xbb27c000	-0.0025596619
137	0xbc46e000	-0.012138367
138	0x3c52e000	0.012870789
139	0xbc020000	-0.00793457
140	0xbc96e000	-0.018417358
141	0x3c324000	0.010879517
142	0x3bad6000	0.005290985
143	0xbbafa000	-0.0053596497
144	0x3c31a000	0.01084137
145	0xbb840000	-0.0040283203
146	0xbc920000	-0.017822266
147	0x3c1fe000	0.009757996
148	0x3bee2000	0.0072669983
149	0xbcd9c000	-0.02658081
150	0xbc014000	-0.007888794
151	0x3c18a000	0.009315491
152	0x3c83a000	0.016067505
153	0xbbd4c000	-0.0064926147
154	0xbb6de000	-0.0036296844
155	0xbbfd0000	-0.0077209473
156	0xbc196000	-0.009361267
157	0xbbcca000	-0.0062446594
158	0xbc1e4000	-0.0096588135
159	0x3c122000	0.008918762
160	0x3c436000	0.011924744
161	0xbc0aa000	-0.008460999
162	0x3bd14000	0.006385803
163	0xba4fa000	-0.0007920265
164	0x3a2cc000	0.00065898895
165	0xba3d8000	-0.00072288513
166	0x3ce00000	0.02734375
167	0xbc6b4000	-0.0143585205
168	0xbbaa8000	-0.005203247
169	0x3c8d6000	0.01725769
170	0xbd294000	-0.0413208
171	0x3cc28000	0.023742676
172	0xbbd98000	-0.0066375732
173	0x3befe000	0.007320404
174	0xbc4ce000	-0.012504578
175	0x3c048000	0.008087158
176	0xbca50000	-0.020141602
177	0x3b570000	0.0032806396
178	0x3c4ae000	0.012382507
179	0xb9974000	-0.00028848648
180	0x3bd84000	0.0065994263
181	0x3c9d8000	0.019226074
182	0x3c8c6000	0.01713562
183	0x3c91e000	0.017807007
184	0xbc5e4000	-0.0135650635
185	0x3c1d0000	0.0095825195
186	0x3bec6000	0.0072135925
187	0x3c740000	0.014892578
188	0xbc758000	-0.014984131
189	0xbcbe0000	-0.02319336
190	0xbb72e000	-0.0037059784
191	0xbc9be000	-0.01902771
192	0xba54c000	-0.00081157684
193	0xbc00a000	-0.007850647
194	0xbc36a000	-0.011146545
195	0xbc8fe000	-0.017562866
196	0x3ca30000	0.019897461
197	0x3c75e000	0.015007019
198	0x3c894000	0.01675415
199	0x3a4be000	0.0007777214
200	0x3c808000	0.015686035
201	0x3c5a0000	0.013305664
202	0x3ce46000	0.027877808
203	0xbba64000	-0.0050735474
204	0x3cb4c000	0.022064209
205	0x3ce80000	0.028320312
206	0xbc56e000	-0.013114929
207	0xbd08e000	-0.033416748
208	0xbc6c6000	-0.014427185
209	0x3cb5a000	0.02217102
210	0x3ccba000	0.024856567
211	0xbabd0000	-0.0014419556
212	0xbc5a6000	-0.013328552
213	0xbc6bc000	-0.014389038
214	0x3b320000	0.0027160645
215	0xbc8f8000	-0.01751709
216	0x3c716000	0.014732361
217	0x3b410000	0.0029449463
218	0x3c1ee000	0.00969696
219	0x3b818000	0.0039520264
220	0xbbad2000	-0.0052833557
221	0x3cbee000	0.02330017
222	0x3cc08000	0.023498535
223	0xbad36000	-0.0016126633
224	0xbc868000	-0.016418457
225	0xbc8c4000	-0.017120361
226	0x3c678000	0.014129639
227	0xbc058000	-0.008148193
228	0xbb5ee000	-0.0034008026
229	0xbc608000	-0.013702393
230	0x3ae3e000	0.0017385483
231	0x3c6d0000	0.014465332
232	0xbc71c000	-0.014755249
233	0xbc38c000	-0.011276245
234	0x3c5ba000	0.013404846
235	0xbb8f4000	-0.004371643
236	0xbc156000	-0.009117126
237	0x3c300000	0.0107421875
238	0xbb98e000	-0.0046653748
239	0x3ab08000	0.0013465881
240	0xbc42c000	-0.011886597
241	0x3b672000	0.0035266876
242	0xbbe72000	-0.0070533752
243	0x3a6dc000	0.0009069443
244	0xbca20000	-0.01977539
245	0xbb052000	-0.0020313263
246	0x3c992000	0.018692017
247	0xbc2d0000	-0.010559082
248	0x3b416000	0.0029506683
249	0x3d090000	0.033447266
250	0x3c786000	0.015159607
251	0xbc202000	-0.009773254
252	0xbc6da000	-0.014503479
253	0x3c088000	0.008331299
254	0x3b896000	0.0041923523
255	0x3afac000	0.0019130707

clip_l f4 [20, 768]
0	0xbcbe0000	-0.02319336
1	0x3a974000	0.0011539459
2	0xbcb9a000	-0.022659302
3	0xbc04c000	-0.008102417
4	0xbba32000	-0.00497818
5	0xbb0b8000	-0.002128601
6	0x3c3a6000	0.011375427
7	0xbc186000	-0.009300232
8	0x3ca4a000	0.020095825
9	0xbc316000	-0.010826111
10	0xbc158000	-0.009124756
11	0x3af4a000	0.0018663406
12	0x3a706000	0.00091695786
13	0x3aadc000	0.0013256073
14	0xbc26e000	-0.010185242
15	0xbc570000	-0.013122559
16	0xbc08a000	-0.008338928
17	0x3b706000	0.0036678314
18	0xbc190000	-0.009338379
19	0x3cc70000	0.024291992
20	0x3c728000	0.014801025
21	0xbc388000	-0.011260986
22	0x3c0be000	0.0085372925
23	0xba45c000	-0.0007543564
24	0xbc982000	-0.018569946
25	0xbbafc000	-0.0053634644
26	0x3cd16000	0.025558472
27	0xbaa2c000	-0.001241684
28	0xbc98a000	-0.018630981
29	0xbcd3c000	-0.025848389
30	0x3c9aa000	0.018875122
31	0x3a88e000	0.0010442734
32	0x3c272000	0.0102005005
33	0x3c33a000	0.01096344
34	0x3c42c000	0.011886597
35	0xbc656000	-0.013999939
36	0x3c9c0000	0.019042969
37	0xbb758000	-0.0037460327
38	0xbc526000	-0.012840271
39	0x3c6da000	0.014503479
40	0xbc8b8000	-0.017028809
41	0x3b912000	0.0044288635
42	0x3c810000	0.01574707
43	0x3b1ca000	0.0023899078
44	0x3ce9e000	0.028549194
45	0x3c03c000	0.008041382
46	0x3c978000	0.018493652
47	0x3b33c000	0.0027427673
48	0x3bde6000	0.0067863464
49	0xbb0c2000	-0.0021381378
50	0xbb1b2000	-0.0023670197
51	0x3c854000	0.01626587
52	0xbce0c000	-0.027435303
53	0x3ba36000	0.0049858093
54	0xbc9ae000	-0.01890564
55	0xbabda000	-0.0014467239
56	0x3b85a000	0.0040779114
57	0xbc78a000	-0.015174866
58	0x3bff8000	0.007797241
59	0x3b692000	0.0035572052
60	0xbbeda000	-0.0072517395
61	0x3cc2a000	0.023757935
62	0xbbb76000	-0.005596161
63	0xbb26c000	-0.002544403
64	0x3beee000	0.0072898865
65	0xbc502000	-0.012702942
66	0xbb9a6000	-0.004711151
67	0xb998e000	-0.00029158592
68	0xbca1c000	-0.019744873
69	0xbc9b2000	-0.018936157
70	0xbc05a000	-0.008155823
71	0x3bbb6000	0.005718231
72	0x3b59a000	0.003320694
73	0x3a174000	0.00057697296
74	0x3ada8000	0.0016670227
75	0xbc510000	-0.012756348
76	0xbb688000	-0.0035476685
77	0x3b9a0000	0.004699707
78	0x3ce36000	0.027755737
79	0x3b08e000	0.0020885468
80	0x3bbe0000	0.00579834
81	0x3c9d4000	0.019195557
82	0xbb148000	-0.0022659302
83	0x3b90c000	0.0044174194
84	0xbcc3a000	-0.023880005
85	0x3c80a000	0.015701294
86	0xbb4ce000	-0.0031261444
87	0xbb0ec000	-0.0021781921
88	0x3bc32000	0.0059547424
89	0x3bb1c000	0.0054244995
90	0xbb99e000	-0.0046958923
91	0x3b274000	0.0025520325
92	0xbb062000	-0.002046585
93	0x3acfc000	0.0015850067
94	0xbafc0000	-0.0019226074
95	0x3ccc6000	0.02494812
96	0xbc2d4000	-0.010574341
97	0x3c8d8000	0.01727295
98	0x3c10a000	0.0088272095
99	0x3ba30000	0.0049743652
100	0xbca08000	-0.019592285
101	0xbc170000	-0.009216309
102	0xbbb70000	-0.005584717
103	0xbc142000	-0.0090408325
104	0xbbf2e000	-0.007411957
105	0xbc514000	-0.012771606
106	0x3c816000	0.015792847
107	0xbcec0000	-0.028808594
108	0xbc568000	-0.013092041
109	0xbc638000	-0.013885498
110	0xbc81a000	-0.015823364
111	0xbcb4c000	-0.022064209
112	0xbc6e8000	-0.014556885
113	0xbc572000	-0.013130188
114	0xbc56e000	-0.013114929
115	0xbb6fe000	-0.003660202
116	0x3b34e000	0.0027599335
117	0x3c93e000	0.018051147
118	0x3ba46000	0.005016327
119	0xbc190000	-0.009338379
120	0x39c74000	0.00038003922
121	0x3cb7a000	0.022415161
122	0x3be76000	0.0070610046
123	0xbb9fe000	-0.004878998
124	0x3c876000	0.016525269
125	0x3bf0c000	0.007347107
126	0xbafaa000	-0.001912117
127	0xbc39e000	-0.01134491
128	0xbbd62000	-0.0065345764
129	0xbc380000	-0.011230469
130	0xbc77c000	-0.01512146
131	0x3bfda000	0.0077400208
132	0x3cf4e000	0.029891968
133	0x3c6f0000	0.014587402
134	0xbadea000	-0.001698494
135	0x3c3c4000	0.011489868
136	0xbc860000	-0.016357422
137	0xbcd5a000	-0.02607727
138	0xb978e000	-0.0002373457
139	0x3b53e000	0.003232956
140	0xbc74a000	-0.014930725
141	0x3c1b4000	0.009475708
142	0xbca50000	-0.020141602
143	0x3c48c000	0.012252808
144	0x3cdfc000	0.027313232
145	0x3d200000	0.0390625
146	0x3cd6c000	0.0262146
147	0x3cb5c000	0.02218628
148	0x3c63e000	0.013908386
149	0x3b3d4000	0.0028877258
150	0xbc11a000	-0.008888245
151	0x3ba98000	0.0051727295
152	0xbcbb0000	-0.022827148
153	0x3b56c000	0.003276825
154	0xbcaa4000	-0.02078247
155	0xbbb5a000	-0.005542755
156	0x3c570000	0.013122559
157	0x3cc7e000	0.024398804
158	0x3c6ba000	0.014381409
159	0xbc5cc000	-0.013473511
160	0x3c830000	0.015991211
161	0x3c330000	0.010925293
162	0xbb84c000	-0.0040512085
163	0xbc25a000	-0.010108948
164	0x3cb86000	0.022506714
165	0x3c884000	0.01663208
166	0x3cb7a000	0.022415161
167	0xbcf18000	-0.02947998
168	0x3c8a0000	0.016845703
169	0x3bba2000	0.005680084
170	0xbc4e0000	-0.012573242
171	0xbb994000	-0.004676819
172	0x3a032000	0.0005002022
173	0xbd058000	-0.032592773
174	0x3b508000	0.0031814575
175	0xbbc48000	-0.005996704
176	0x3c1ae000	0.00945282
177	0xbc492000	-0.012275696
178	0xbb06a000	-0.0020542145
179	0x3ce2e000	0.027694702
180	0x3c200000	0.009765625
181	0x3b5a6000	0.003332138
182	0x3cc90000	0.024536133
183	0xbaedc000	-0.0018138885
184	0xbbafe000	-0.005367279
185	0xbc19c000	-0.009384155
186	0xbc190000	-0.009338379
187	0xbc580000	-0.013183594
188	0xbb412000	-0.0029468536
189	0xbcdc8000	-0.026916504
190	0x3d0e6000	0.03475952
191	0xbc8e4000	-0.017364502
192	0xb9bf6000	-0.00036501884
193	0x3c244000	0.010025024
194	0xbc36a000	-0.011146545
195	0x3c682000	0.014167786
196	0xbb414000	-0.002948761
197	0x3be18000	0.006881714
198	0x3ad22000	0.0016031265
199	0x3cc9c000	0.024627686
200	0xbc54e000	-0.012992859
201	0xbc938000	-0.018005371
202	0xbbb1a000	-0.005420685
203	0x3bcd2000	0.006259918
204	0xbaccc000	-0.0015621185
205	0xbc4c0000	-0.012451172
206	0x3cd70000	0.026245117
207	0xbc4da000	-0.012550354
208	0x3c920000	0.017822266
209	0x3c44c000	0.012008667
210	0xbc772000	-0.015083313
211	0x3c02e000	0.007987976
212	0xbb6aa000	-0.0035800934
213	0x3ca66000	0.020309448
214	0x3bd6e000	0.0065574646
215	0xbbfec000	-0.007774353
216	0x3beb8000	0.0071868896
217	0x3c778000	0.015106201
218	0x3be40000	0.006958008
219	0xbccd4000	-0.025054932
220	0xbc212000	-0.00983429
221	0x3c9b6000	0.018966675
222	0xbc28c000	-0.010299683
223	0xbc274000	-0.01020813
224	0x39adc000	0.00033140182
225	0xbcad6000	-0.02116394
226	0x3c4e2000	0.012580872
227	0xbc3e6000	-0.011619568
228	0x3c92a000	0.01789856
229	0xbba26000	-0.0049552917
230	0x3c9b6000	0.018966675
231	0xbc318000	-0.01083374
232	0x3c0b8000	0.008514404
233	0xbb7a6000	-0.0038204193
234	0x3d07c000	0.03314209
235	0x3c06a000	0.008216858
236	0x3c962000	0.018325806
237	0xba5a2000	-0.00083208084
238	0x3b51c000	0.003200531
239	0x3be40000	0.006958008
240	0x3c398000	0.0113220215
241	0xbc3ba000	-0.011451721
242	0x3b2d0000	0.0026397705
243	0x3c9a4000	0.018829346
244	0xbb514000	-0.0031929016
245	0x3b1f6000	0.0024318695
246	0x3b3e2000	0.0029010773
247	0xbc1e0000	-0.009643555
248	0x3d090000	0.033447266
249	0x3c880000	0.016601562
250	0xbb98e000	-0.0046653748
251	0xbbe72000	-0.0070533752
252	0x3c3c6000	0.011497498
253	0xbc392000	-0.011299133
254	0x3c35e000	0.011100769
255	0x3c2d2000	0.010566711
