General Embeddings/SDXL-Pony/SDXL-SkinDetail.safetensors (safetensors, 114840 bytes, 2 tensors)

clip_g f4 [14, 1280]
-0.006587982 -0.0009121895 0.023544312 0.0015478134 -0.010002136 0.0050811768 0.0075912476 -0.03717041
-0.012969971 -0.0013580322 -0.00868988 -0.02217102 0.020111084 0.009994507 -0.047943115 -0.00038337708
-0.024383545 0.022994995 0.012008667 -0.021316528 0.008720398 -0.005405426 0.0051345825 -0.012916565
-0.013198853 -0.017120361 -0.01701355 -0.01134491 -0.009178162 0.005935669 -0.0018882751 -0.011688232
0.011657715 0.02053833 0.016479492 0.021255493 -0.023757935 -0.01979065 0.03552246 0.0065841675
-0.007926941 0.012306213 0.014785767 0.006958008 0.009223938 0.0149383545 0.0039405823 0.014022827
0.0034675598 0.013961792 -0.011512756 -0.016342163 0.036224365 0.02684021 -0.014480591 -0.01436615
0.015090942 0.028289795 0.015258789 -0.015686035 0.007247925 0.01852417 0.011497498 0.010231018
0.00818634 0.004096985 0.04135132 0.0018663406 0.0011796951 0.012901306 -0.013648987 -0.016036987
-0.023925781 -0.021438599 -0.019470215 -0.008407593 -0.019104004 -0.026626587 0.010498047 0.02557373
-0.008842468 0.017730713 -0.0069885254 -0.006790161 0.0034542084 0.015602112 0.00056648254 -0.0027427673
0.0070343018 -0.01209259 -0.02810669 -0.002916336 0.0049438477 -0.016830444 -0.0024318695 -0.013412476
0.0042533875 0.01234436 0.0082473755 0.013587952 -0.031188965 0.038238525 0.0020580292 -0.023223877
-0.021728516 -0.012130737 -0.018325806 0.0018463135 -0.02609253 0.02192688 0.003818512 0.018112183
-0.0061302185 -0.0007548332 0.0063591003 0.021057129 0.005138397 0.0102005005 0.0074882507 -0.00724411
3.1650066e-05 -0.016311646 0.007484436 0.010398865 -0.012771606 -0.022888184 -0.0046577454 0.016326904
0.0031223297 0.010826111 -0.004737854 0.016082764 0.011352539 0.007511139 -0.02470398 -0.0044784546
-0.0010995865 -0.030303955 -0.027114868 0.014694214 -0.0037670135 -0.020004272 0.009422302 0.024902344
0.00080156326 0.008270264 -0.00894928 0.01914978 0.019302368 0.0158844 -0.0126953125 0.0070533752
-0.005962372 -0.0018787384 -0.016296387 0.011756897 -0.018936157 -0.015716553 -0.0056915283 -0.014511108
-0.020599365 -0.013496399 0.013427734 -0.0031414032 0.0076293945 0.00680542 0.0045394897 -0.00026154518
0.0014638901 0.017791748 0.0028896332 -0.015716553 -0.004524231 -0.0070991516 -0.0005722046 -0.013114929
0.0064048767 -0.0078125 -0.00073862076 -0.0024051666 0.010856628 -0.014503479 -0.011512756 -0.0077705383
-0.015533447 0.01612854 -0.02154541 -0.0016860962 -0.009750366 -0.017181396 -0.002128601 0.016082764
-0.033050537 0.0074386597 0.0053367615 -0.01309967 0.007827759 -0.0151901245 0.010360718 -0.0047454834
0.0009880066 0.0011730194 0.029907227 0.002494812 0.00057411194 0.006351471 0.0076293945 -0.031829834
-0.0048217773 0.030014038 0.015029907 -0.008018494 -0.012557983 0.0006556511 -0.013946533 -0.0031433105
0.021972656 0.0010585785 -0.00982666 0.0029563904 -0.010063171 0.014480591 0.016494751 0.0021305084
0.0043029785 -0.0021572113 0.0008625984 0.0209198 0.015716553 0.0030765533 -0.014533997 -0.021224976
-0.011291504 -0.0037574768 -0.02029419 -0.024978638 0.010322571 0.0014467239 0.0043525696 -0.015007019
0.016235352 -0.012809753 -0.0024604797 -0.0039405823 -0.013015747 0.017089844 0.002155304 0.02432251
0.001742363 0.012710571 0.00015425682 0.020126343 -0.009811401 -0.002904892 -0.014793396 0.019515991
00000000: 00e0 d7bb 0020 6fba 00e0 c03c 00e0 ca3a
00000010: 00e0 23bc 0080 a63b 00c0 f83b 0040 18bd
00000020: 0080 54bc 0000 b2ba 0060 0ebc 00a0 b5bc
00000030: 00c0 a43c 00c0 233c 0060 44bd 0000 c9b9
00000040: 00c0 c7bc 0060 bc3c 00c0 443c 00a0 aebc
00000050: 00e0 0e3c 0020 b1bb 0040 a83b 00a0 53bc
00000060: 0040 58bc 0040 8cbc 0060 8bbc 00e0 39bc
00000070: 0060 16bc 0080 c23b 0080 f7ba 0080 3fbc
00000080: 0000 3f3c 0040 a83c 0000 873c 0020 ae3c
00000090: 00a0 c2bc 0020 a2bc 0080 113d 00c0 d73b
000000a0: 00e0 01bc 00a0 493c 0040 723c 0000 e43b
000000b0: 0020 173c 00c0 743c 0020 813b 00c0 653c
000000c0: 0040 633b 00c0 643c 00a0 3cbc 00e0 85bc
000000d0: 0060 143d 00e0 db3c 0040 6dbc 0060 6bbc
000000e0: 0040 773c 00c0 e73c 0000 7a3c 0080 80bc
000000f0: 0080 ed3b 00c0 973c 0060 3c3c 00a0 273c
00000100: 0020 063c 0040 863b 0060 293d 00a0 f43a
00000110: 00a0 9a3a 0060 533c 00a0 5fbc 0060 83bc
00000120: 0000 c4bc 00a0 afbc 0080 9fbc 00c0 09bc
00000130: 0080 9cbc 0020 dabc 0000 2c3c 0080 d13c
00000140: 00e0 10bc 0040 913c 0000 e5bb 0080 debb
00000150: 0060 623b 00a0 7f3c 0080 143a 00c0 33bb
00000160: 0080 e63b 0020 46bc 0040 e6bc 0020 3fbb
00000170: 0000 a23b 00e0 89bc 0060 1fbb 00c0 5bbc
00000180: 0060 8b3b 0040 4a3c 0020 073c 00a0 5e3c
00000190: 0080 ffbc 00a0 1c3d 00e0 063b 0040 bebc
000001a0: 0000 b2bc 00c0 46bc 0020 96bc 0000 f23a
000001b0: 00c0 d5bc 00a0 b33c 0040 7a3b 0060 943c
000001c0: 00e0 c8bb 00e0 45ba 0060 d03b 0080 ac3c
000001d0: 0060 a83b 0020 273c 0060 f53b 0060 edbb
000001e0: 00c0 0438 00a0 85bc 0040 f53b 0060 2a3c
000001f0: 0040 51bc 0080 bbbc 00a0 98bb 00c0 853c
00000200: 00a0 4c3b 0060 313c 0040 9bbb 00c0 833c
00000210: 0000 3a3c 0020 f63b 0060 cabc 00c0 92bb
00000220: 0020 90ba 0040 f8bc 0020 debc 00c0 703c
00000230: 00e0 76bb 00e0 a3bc 0060 1a3c 0000 cc3c
00000240: 0020 523a 0080 073c 00a0 12bc 00e0 9c3c
00000250: 0020 9e3c 0020 823c 0000 50bc 0020 e73b
00000260: 0060 c3bb 0040 f6ba 0080 85bc 00a0 403c
00000270: 0020 9bbc 00c0 80bc 0080 babb 00c0 6dbc
00000280: 00c0 a8bc 0020 5dbc 0000 5c3c 00e0 4dbb
00000290: 0000 fa3b 0000 df3b 00c0 943b 0020 89b9
000002a0: 00e0 bf3a 00c0 913c 0060 3d3b 00c0 80bc
000002b0: 0040 94bb 00a0 e8bb 0000 16ba 00e0 56bc
000002c0: 00e0 d13b 0000 00bc 00a0 41ba 00a0 1dbb
000002d0: 00e0 313c 00a0 6dbc 00a0 3cbc 00a0 febb
000002e0: 0080 7ebc 0020 843c 0080 b0bc 0000 ddba
000002f0: 00c0 1fbc 00c0 8cbc 0080 0bbb 00c0 833c
00000300: 0060 07bd 00c0 f33b 00e0 ae3b 00a0 56bc
00000310: 0040 003c 00e0 78bc 00c0 293c 0080 9bbb
00000320: 0080 813a 00c0 993a 0000 f53c 0080 233b
00000330: 0080 163a 0020 d03b 0000 fa3b 0060 02bd
00000340: 0000 9ebb 00e0 f53c 0040 763c 0060 03bc
00000350: 00c0 4dbc 00e0 2b3a 0080 64bc 0000 4ebb
00000360: 0000 b43c 00c0 8a3a 0000 21bc 00c0 413b
00000370: 00e0 24bc 0040 6d3c 0020 873c 00a0 0b3b
00000380: 0000 8d3b 0060 0dbb 0020 623a 0060 ab3c
00000390: 00c0 803c 00a0 493b 0020 6ebc 00e0 adbc
000003a0: 0000 39bc 0040 76bb 0040 a6bc 00a0 ccbc
000003b0: 0020 293c 00a0 bd3a 00a0 8e3b 00e0 75bc
000003c0: 0000 853c 00e0 51bc 0040 21bb 0020 81bb
000003d0: 0040 55bc 0000 8c3c 0040 0d3b 0040 c73c
000003e0: 0060 e43a 0040 503c 00c0 2139 00e0 a43c
000003f0: 00c0 20bc 0060 3ebb 0060 72bc 00e0 9f3c

clip_l f4 [14, 768]
-0.02368164 -0.00970459 -0.014656067 0.00082206726 -0.007843018 -0.0062294006 0.0043907166 0.011062622
0.0132751465 -0.008087158 -0.019515991 -0.015296936 0.009727478 -0.014297485 -0.0069236755 0.0030174255
0.011306763 -0.0033092499 -0.0057258606 0.020751953 -0.021362305 0.01701355 -0.0049476624 -0.009086609
0.0048179626 0.011169434 -0.002773285 0.010154724 -0.00957489 0.00048160553 0.00027799606 -0.0056533813
0.0044898987 0.005619049 -0.004005432 -0.005378723 0.0052261353 -0.008728027 -0.014419556 -0.024795532
0.017868042 -0.00027537346 0.011558533 -0.003868103 0.008628845 -0.012184143 -0.0042381287 -0.0015563965
0.0024757385 0.009307861 0.0085372925 -0.002040863 -0.025741577 -0.011444092 0.007255554 0.005016327
-0.017181396 -0.009002686 0.004283905 0.015975952 -0.0051078796 -0.0015182495 0.006175995 -0.031829834
-0.003967285 0.016204834 0.0031490326 0.01499939 0.0024414062 0.008239746 0.015426636 -0.021453857
-0.003332138 0.0033054352 0.035217285 0.012161255 -0.0029563904 0.02330017 0.004398346 -0.00094127655
-0.013031006 -0.0014877319 0.003917694 0.0041999817 0.0056648254 0.009521484 -0.0033340454 0.020614624
-0.0004069805 0.013938904 -0.0029945374 -0.0064201355 -0.016921997 -0.012763977 -0.007671356 0.00881958
0.013641357 0.0019435883 0.000998497 -0.029693604 -0.0038375854 0.0059165955 -0.01008606 -0.013114929
0.0012102127 0.009391785 0.002281189 0.010574341 -0.014160156 0.02229309 -0.008628845 0.0098724365
0.0020046234 -0.018600464 -0.0013561249 0.0063209534 0.015380859 0.0038585663 -0.0076560974 -0.006580353
-0.0033073425 0.0009775162 -0.008895874 0.017715454 0.0019741058 -0.012924194 -0.0027828217 0.040527344
-0.012435913 -0.0072402954 -0.0076942444 0.0056381226 0.0064048767 -0.005680084 0.012191772 0.03793335
0.0036239624 0.030075073 0.017059326 -0.0010004044 -0.011123657 -5.3346157e-05 -0.0065345764 -0.0003569126
-0.0012407303 0.007369995 0.0019302368 0.0009522438 -0.033691406 0.00029540062 0.012039185 -0.010124207
-0.016159058 -0.0019893646 -0.0057029724 -0.0051002502 0.010032654 0.00053215027 -0.0071258545 -0.013153076
0.020767212 -0.006416321 0.010002136 -0.01612854 -0.0016994476 -0.018981934 0.036895752 0.00831604
-0.014053345 0.010795593 0.009384155 0.020050049 -0.020126343 -0.004421234 -0.012710571 -0.006839752
-0.0015258789 0.00724411 -0.013442993 -0.0041999817 -0.0052261353 0.038513184 0.002960205 -0.0007715225
-0.0033283234 -0.013214111 0.0023708344 -0.016586304 -0.0016384125 0.013465881 0.01626587 0.008293152
0.0003437996 0.007949829 -0.02319336 0.011795044 -0.0022125244 -0.0008134842 -0.014343262 0.0015182495
0.013511658 0.0070343018 -0.014434814 -0.0049209595 -0.010070801 -0.005657196 0.009529114 -0.022109985
0.008270264 0.0072250366 -4.8995018e-05 -0.0019931793 -0.009208679 -0.024307251 0.0049362183 0.01725769
0.011245728 0.0051498413 0.01071167 0.017028809 -0.020187378 0.012191772 0.022903442 -0.00566864
0.0055618286 -0.01121521 0.009155273 0.0040626526 0.00674057 0.024108887 0.0012989044 -0.0009584427
-0.0063095093 -0.025863647 -0.005016327 0.027053833 -0.0077209473 0.011238098 -0.0034217834 0.0002746582
-0.02507019 0.0056991577 0.005016327 0.003042221 0.011184692 -0.005809784 0.014122009 0.014274597
-0.013069153 -0.01966858 0.007881165 -0.01399231 0.0026931763 -0.038635254 -0.011169434 0.012954712
00000000: 0000 c2bc 0000 1fbc 0020 70bc 0080 573a
00000010: 0080 00bc 0020 ccbb 00e0 8f3b 0040 353c
00000020: 0080 593c 0080 04bc 00e0 9fbc 00a0 7abc
00000030: 0060 1f3c 0040 6abc 00e0 e2bb 00c0 453b
00000040: 0040 393c 00e0 58bb 00a0 bbbb 0000 aa3c
00000050: 0000 afbc 0060 8b3c 0020 a2bb 00e0 14bc
00000060: 00e0 9d3b 0000 373c 00c0 35bb 0060 263c
00000070: 00e0 1cbc 0080 fc39 00c0 9139 0040 b9bb
00000080: 0020 933b 0020 b83b 0040 83bb 0040 b0bb
00000090: 0040 ab3b 0000 0fbc 0040 6cbc 0020 cbbc
000000a0: 0060 923c 0060 90b9 0060 3d3c 0080 7dbb
000000b0: 0060 0d3c 00a0 47bc 00e0 8abb 0000 ccba
000000c0: 0040 223b 0080 183c 00e0 0b3c 00c0 05bb
000000d0: 00e0 d2bc 0080 3bbc 00c0 ed3b 0060 a43b
000000e0: 00c0 8cbc 0080 13bc 0060 8c3b 00e0 823c
000000f0: 0060 a7bb 0000 c7ba 0060 ca3b 0060 02bd
00000100: 0000 82bb 00c0 843c 0060 4e3b 00c0 753c
00000110: 0000 203b 0000 073c 00c0 7c3c 00c0 afbc
00000120: 0060 5abb 00a0 583b 0040 103d 0040 473c
00000130: 00c0 41bb 00e0 be3c 0020 903b 00c0 76ba
00000140: 0080 55bc 0000 c3ba 0060 803b 00a0 893b
00000150: 00a0 b93b 0000 1c3c 0080 5abb 00e0 a83c
00000160: 0060 d5b9 0060 643c 0040 44bb 0060 d2bb
00000170: 00a0 8abc 0020 51bc 0060 fbbb 0080 103c
00000180: 0080 5f3c 00c0 fe3a 00e0 823a 0040 f3bc
00000190: 0080 7bbb 00e0 c13b 0040 25bc 00e0 56bc
000001a0: 00a0 9e3a 00e0 193c 0080 153b 0040 2d3c
000001b0: 0000 68bc 00a0 b63c 0060 0dbc 00c0 213c
000001c0: 0060 033b 0060 98bc 00c0 b1ba 0020 cf3b
000001d0: 0000 7c3c 00e0 7c3b 00e0 fabb 00a0 d7bb
000001e0: 00c0 58bb 0020 803a 00c0 11bc 0020 913c
000001f0: 0060 013b 00c0 53bc 0060 36bb 0000 263d
00000200: 00c0 4bbc 0040 edbb 0020 fcbb 00c0 b83b
00000210: 00e0 d13b 0020 babb 00c0 473c 0060 1b3d
00000220: 0080 6d3b 0060 f63c 00c0 8b3c 0020 83ba
00000230: 0040 36bc 00c0 5fb8 0020 d6bb 0020 bbb9
00000240: 00a0 a2ba 0080 f13b 0000 fd3a 00a0 793a
00000250: 0000 0abd 00e0 9a39 0040 453c 00e0 25bc
00000260: 0060 84bc 0060 02bb 00e0 babb 0020 a7bb
00000270: 0060 243c 0080 0b3a 0080 e9bb 0080 57bc
00000280: 0020 aa3c 0040 d2bb 00e0 233c 0020 84bc
00000290: 00c0 deba 0080 9bbc 0020 173d 0040 083c
000002a0: 0040 66bc 00e0 303c 00c0 193c 0040 a43c
000002b0: 00e0 a4bc 00e0 90bb 0040 50bc 0020 e0bb
000002c0: 0000 c8ba 0060 ed3b 0040 5cbc 00a0 89bb
000002d0: 0040 abbb 00c0 1d3d 0000 423b 0040 4aba
000002e0: 0020 5abb 0080 58bc 0060 1b3b 00e0 87bc
000002f0: 00c0 d6ba 00a0 5c3c 0040 853c 00e0 073c
00000300: 0040 b439 0040 023c 0000 bebc 0040 413c
00000310: 0000 11bb 0040 55ba 0000 6bbc 0000 c73a
00000320: 0060 5d3c 0080 e63b 0080 6cbc 0040 a1bb
00000330: 0000 25bc 0060 b9bb 0020 1c3c 0020 b5bc
00000340: 0080 073c 00c0 ec3b 0080 4db8 00a0 02bb
00000350: 00e0 16bc 0020 c7bc 00c0 a13b 0060 8d3c
00000360: 0040 383c 00c0 a83b 0080 2f3c 0080 8b3c
00000370: 0060 a5bc 00c0 473c 00a0 bb3c 00c0 b9bb
00000380: 0040 b63b 00c0 37bc 0000 163c 0020 853b
00000390: 00e0 dc3b 0080 c53c 0040 aa3a 0040 7bba
000003a0: 00c0 cebb 00e0 d3bc 0060 a4bb 00a0 dd3c
000003b0: 0000 fdbb 0020 383c 0040 60bb 0000 9039
000003c0: 0060 cdbc 00c0 ba3b 0060 a43b 0060 473b
000003d0: 0040 373c 0060 bebb 0060 673c 00e0 693c
000003e0: 0020 56bc 0020 a1bc 0020 013c 0040 65bc
000003f0: 0080 303b 0040 1ebd 0000 37bc 0040 543c
